inverted_pendulum/trained_models/pendulum_VAE_hor3_bl5_lr1e03.pt (torch, 22737 bytes, 18 tensors)

encoder.fc1.weight f4 [30, 40]
0	0xbe8c6473	-0.27420387
1	0x3f553592	0.83284867
2	0xbe93543f	-0.28775212
3	0x3f1c5db1	0.6108046
4	0xbe535065	-0.20636137
5	0x3f44de98	0.7690215
6	0xbe6949c8	-0.22782052
7	0x3f08afe3	0.5339338
8	0xbdb15eac	-0.08660635
9	0x3efa5e5d	0.48900118
10	0xbe6897ee	-0.22714207
11	0x3ec93a68	0.39302373
12	0xbd04226d	-0.032259393
13	0x3eb4a18f	0.3527951
14	0xbe24d248	-0.16095841
15	0x3e1ac91d	0.15115781
16	0xbd84bab0	-0.0648092
17	0x3df92a7b	0.12166306
18	0xbe07f621	-0.13277484
19	0x3e34e548	0.17665589
20	0xbe6b96f4	-0.23006803
21	0x3d88075f	0.06642031
22	0xbe102016	-0.1407474
23	0xbc37fd84	-0.011229876
24	0xbdb4812a	-0.088136986
25	0x3d2f7b6a	0.042842306
26	0xbe224770	-0.15847564
27	0xbe5e0d7c	-0.21684831
28	0xbd213b30	-0.039363086
29	0xbdb7d261	-0.089756735
30	0xbdcc7b70	-0.09984481
31	0xbdce66d3	-0.10078206
32	0xbe845788	-0.2584803
33	0xbdeaf4e5	-0.11472491
34	0x3c11acd7	0.008891306
35	0xbea8ddd3	-0.32981738
36	0xbdd2ec99	-0.10299034
37	0xbde111de	-0.10989736
38	0xbe4ce840	-0.20010471
39	0x3d22a517	0.039708223
40	0x3dd6808c	0.10473737
41	0x3eae4337	0.34035656
42	0x3e83d5af	0.25748965
43	0x3ddcd583	0.10782912
44	0x3e3cf055	0.18451054
45	0x3c9a9584	0.018870123
46	0x3e91bc50	0.28463984
47	0xbdc4e289	-0.09613521
48	0x3d68dcd4	0.056851223
49	0xbe68bf74	-0.22729284
50	0x3cd01b09	0.025403516
51	0xbea68943	-0.32526597
52	0x3e0d9184	0.13825041
53	0xbeb4bdef	-0.35301158
54	0x3bebffee	0.00720214
55	0xbe5624f6	-0.20912537
56	0xbda6df07	-0.08148008
57	0xbea84d8d	-0.32871667
58	0x3e215f17	0.1575893
59	0xbd2a4a5d	-0.041574825
60	0x3d472ed4	0.048628643
61	0xbe96d9a3	-0.2946292
62	0x3de48f76	0.111601755
63	0xbe660278	-0.22461879
64	0xbdd6d341	-0.10489512
65	0xbe8a35c1	-0.26994136
66	0xbd8e0aba	-0.0693564
67	0xbe30ca34	-0.17264634
68	0xbca21a07	-0.019787801
69	0xbe6819c9	-0.22666086
70	0xbe3adde0	-0.18248701
71	0xbeb196c0	-0.34685326
72	0xbc29dcef	-0.010367616
73	0xbdbd124f	-0.09232008
74	0xbdb8894f	-0.090105645
75	0xbe10570f	-0.1409571
76	0xbe33bb35	-0.17551883
77	0x3e259527	0.16170178
78	0xbe0a6608	-0.13515484
79	0x3d6bafd0	0.057540715
80	0xbe093c78	-0.13401973
81	0x3ea8df2f	0.32982776
82	0xbdab39f5	-0.08360664
83	0x3e6e02ba	0.23243228
84	0xbdec0e73	-0.115261935
85	0x3e216eb3	0.15764885
86	0x3e01b146	0.1266528
87	0x3d1a3bf0	0.037654817
88	0x3cc7be0d	0.024382615
89	0x3ddfaa86	0.10921197
90	0x3da491a6	0.08035593
91	0x3db68b83	0.089133285
92	0x3e3c9e95	0.18419869
93	0x3cb5409d	0.022125537
94	0x3df5ccee	0.12001978
95	0xbdf9e580	-0.12201977
96	0x3e80af58	0.25133777
97	0x3d74f179	0.0598006
98	0x3e2eb53b	0.17061321
99	0xbd227722	-0.039664395
100	0x3e3e7697	0.18599926
101	0xbd6840b2	-0.056702323
102	0x3e9615ac	0.2931341
103	0x3dc269f2	0.09492864
104	0x3e6609c8	0.22464669
105	0x3d0a7b2f	0.033808883
106	0x3e560092	0.20898655
107	0x3cd8658a	0.026415605
108	0x3e105a8f	0.14097045
109	0xbd095f85	-0.03353836
110	0x3e888d76	0.26670426
111	0xbe546e4e	-0.20745203
112	0x3e5b1b44	0.2139712
113	0xbe5e535c	-0.21711487
114	0x3e95e99c	0.29279792
115	0xbef1a50e	-0.4719624
116	0x3d8a2b1e	0.06746505
117	0xbf141455	-0.57843524
118	0x3e6de15a	0.23230496
119	0xbf00a5b8	-0.50252867
120	0x3da3eaec	0.08003792
121	0xbf0f5409	-0.559876
122	0x3e406e46	0.18792066
123	0xbf207632	-0.6268035
124	0x3dcf10eb	0.10110649
125	0xbefe534a	-0.4967292
126	0x3de571d0	0.11203349
127	0xbf05b015	-0.52221805
128	0x3e814708	0.25249505
129	0xbece20d3	-0.40259418
130	0x3db375a9	0.08762676
131	0xbe813fb4	-0.25243914
132	0x3dd505b4	0.104014784
133	0xbea3ef3f	-0.32018468
134	0x3e1cdb5a	0.15318051
135	0xbea1dfc2	-0.31616026
136	0x3e14edc8	0.14543831
137	0xbdf9b756	-0.12193172
138	0x3e59cf65	0.21270521
139	0xbe5bb5ad	-0.21456023
140	0x3dd2e40a	0.10297401
141	0xbebefe0e	-0.37303203
142	0x3dfd7330	0.12375486
143	0xbe8c5f6f	-0.2741656
144	0x3e483304	0.19550711
145	0xbcce041b	-0.025148442
146	0x3e7ef6e2	0.24898866
147	0xbe02a9cb	-0.12760083
148	0x3e1b2191	0.15149523
149	0xbdfd3564	-0.12363699
150	0xbb980038	-0.004638698
151	0x3da10c21	0.078636415
152	0x3e5bc8dc	0.2146334
153	0x3bb52129	0.0055276346
154	0x3d44dafd	0.048060406
155	0x3db86303	0.0900326
156	0x3e9d99e1	0.30781463
157	0x3e273343	0.16328149
158	0x3ea102e4	0.31447518
159	0x3e27b3f3	0.16377239
160	0x3dc3c305	0.095586814
161	0x3f090361	0.5352078
162	0x3db31bbb	0.087455235
163	0x3ef51d7d	0.4787406
164	0xbda92cca	-0.08260496
165	0x3eec6c04	0.4617616
166	0xbbb70f9a	-0.0055865766
167	0x3ef7374c	0.48284376
168	0x3cf4398d	0.029812599
169	0x3eead51f	0.45865723
170	0xbdc6ba8e	-0.09703551
171	0x3ec57a03	0.3856965
172	0x3d6c6215	0.057710726
173	0x3eac93b0	0.33706427
174	0x3da491ff	0.08035659
175	0x3a4d024b	0.0007820471
176	0xbb82c6cf	-0.003990985
177	0x3e0b76bc	0.13619512
178	0xbd43cd8c	-0.047803447
179	0xbe1571d8	-0.14594209
180	0x3d3c4c70	0.045971334
181	0x3dc60095	0.0966808
182	0x3b40bfa7	0.0029411109
183	0xbd303dc1	-0.043027643
184	0xbd4e6923	-0.050393235
185	0xbd0e0350	-0.034671128
186	0xbdc6a497	-0.09699362
187	0xbe0d92ed	-0.13825579
188	0x3db633cd	0.08896599
189	0x3e2821c5	0.16419132
190	0xbdc743c9	-0.09729726
191	0x3e37f93d	0.1796617
192	0x3cd36b90	0.025808126
193	0x3eb2e29a	0.34938508
194	0x3d3ad9ef	0.045617994
195	0x3efc1214	0.49232543
196	0x3d8ab33b	0.06772467
197	0x3f1089f6	0.5646051
198	0x3d8db649	0.06919534
199	0x3f314d6a	0.6925875
200	0xbd4155f9	-0.04720113
201	0xbed942cf	-0.42433783
202	0xbe7eccfc	-0.24882883
203	0xbe72bed2	-0.23705605
204	0xbdf1385b	-0.11778327
205	0xbe53ed4e	-0.20695993
206	0xbe8550c0	-0.2603817
207	0xbdd00bdd	-0.10158513
208	0xbe143079	-0.14471616
209	0xba659845	-0.00087583467
210	0xbe804466	-0.25052184
211	0x3cc55e0c	0.024092697
212	0xbe4f1b2d	-0.2022521
213	0xbddce190	-0.1078521
214	0xbe66fb61	-0.22556831
215	0xbd62bd05	-0.055356044
216	0xbe1532e8	-0.145702
217	0xbd364e92	-0.044508524
218	0xbea75211	-0.326798
219	0xbd982a02	-0.07429887
220	0xbe849829	-0.2589734
221	0xbe9f892c	-0.3115934
222	0xbe621fe9	-0.22082485
223	0xbe38a561	-0.18031837
224	0xbeb8d7cc	-0.3610214
225	0xbeb292e2	-0.34877688
226	0xbe9ae9a8	-0.3025639
227	0xbe4b9835	-0.19882281
228	0xbef08cb3	-0.46982345
229	0xbecc4159	-0.39893606
230	0xbeaaed30	-0.33384085
231	0xbea539e2	-0.32270724
232	0xbee250b6	-0.44202203
233	0xbe3432db	-0.17597525
234	0xbead0efe	-0.338005
235	0xbda1124f	-0.0786482
236	0xbf0eea6e	-0.5582646
237	0xbe1409d4	-0.14456874
238	0xbed9b113	-0.4251791
239	0xbe6c466c	-0.23073739
240	0xbe06fb06	-0.13181695
241	0xbedf400d	-0.43603554
242	0xbe2f98b6	-0.17148098
243	0xbeea4e4f	-0.4576287
244	0x3cabaad5	0.020955482
245	0xbeda248e	-0.42606014
246	0xbde382b3	-0.11108913
247	0xbe989a6f	-0.29805323
248	0xbe310e2c	-0.17290562
249	0xbe0f5605	-0.13997658
250	0x3d12595e	0.03572976
251	0x3dd0d109	0.1019612
252	0xbda809cd	-0.08204994
253	0x3d4064dc	0.046971187
254	0x3dba773a	0.09104772
255	0x3ede40a0	0.4340868

encoder.fc1.bias f4 [30]
0	0xbe0875e0	-0.13326216
1	0xc0116e0c	-2.2723417
2	0x400a19e8	2.1578312
3	0x3fc0c996	1.5061519
4	0xbfb94e6e	-1.447706
5	0xbf7dedb0	-0.9919081
6	0x3ea3a8bc	0.31964672
7	0x3fa3ac55	1.2786967
8	0x3fde8849	1.7385341
9	0x3e0e2bee	0.13883945
10	0xbfc7ca70	-1.5608654
11	0x3f83ac6d	1.0286995
12	0xbee9782f	-0.45599505
13	0x3fe60709	1.7970897
14	0xbec4d12c	-0.38440835
15	0xbf90ee9f	-1.1322821
16	0x3f62bbf8	0.8856807
17	0xbffd4456	-1.978648
18	0x3f30531c	0.68876815
19	0xbf710578	-0.9414897
20	0xbfb3a259	-1.403392
21	0xbea79ad3	-0.3273531
22	0x3f1181df	0.5683879
23	0x3f94737f	1.1597747
24	0xbfe12bd4	-1.75915
25	0xbefb7199	-0.49110106
26	0xbf8aa17c	-1.0830531
27	0xbfb21da5	-1.3915297
28	0x3fcb4f7b	1.588363
29	0x40181631	2.3763545

encoder.fc2.weight f4 [20, 30]
0	0xbc6e4bac	-0.014544409
1	0xbf97e49f	-1.1866645
2	0x3f223ed5	0.63377124
3	0x3e374ada	0.17899647
4	0x3db24ad6	0.0870568
5	0xbe19604c	-0.1497814
6	0xbdec1959	-0.11528272
7	0x3f3645eb	0.71200436
8	0x3f161398	0.5862365
9	0x3ddfbe80	0.10925007
10	0xbf6d4601	-0.9268494
11	0x3d2fb6f2	0.04289908
12	0xbe4f83ca	-0.20265117
13	0x3f299cdd	0.6625498
14	0x3e2464f7	0.1605414
15	0xbf1906c9	-0.5977598
16	0xbcb0bdee	-0.02157494
17	0xbdbe0f82	-0.09280302
18	0x3f113ef3	0.5673668
19	0xbdb630a6	-0.08895998
20	0xbf4ae8b6	-0.7926134
21	0xbe31d487	-0.17366229
22	0xbcc06b0f	-0.02348855
23	0x3e9498ad	0.29022732
24	0xbee1c8f1	-0.4409862
25	0xbec33797	-0.3812835
26	0x3c9b847f	0.018984077
27	0xbecaf0f3	-0.39636955
28	0x3e6306a0	0.22170496
29	0x3f96913b	1.1763071
30	0x3edf1672	0.43571812
31	0x3eb0b26b	0.34511122
32	0x3f49c7f1	0.7882071
33	0xbee759dd	-0.45185748
34	0xbe83b460	-0.25723553
35	0x3e490430	0.19630504
36	0xbdd1bb69	-0.10240824
37	0xbf05e887	-0.52307934
38	0xbe3cc451	-0.18434264
39	0xba0f36d2	-0.0005463186
40	0xbdbe4d68	-0.09292108
41	0xbd2f414d	-0.042786885
42	0xbe8ca74d	-0.2747139
43	0xbc59aea5	-0.013286267
44	0x3fa07556	1.2535808
45	0xbeaf6d89	-0.34263256
46	0xbe8dd11b	-0.27698597
47	0xbf1ee2fd	-0.62065107
48	0xbebaefa0	-0.36510944
49	0xbcf8a3e6	-0.03035159
50	0x3e50c7f1	0.20388772
51	0x3dc319b6	0.09526388
52	0x3f04aad0	0.5182314
53	0x3c640df0	0.013919339
54	0x3e1eccaa	0.1550776
55	0x3e04c352	0.12965134
56	0x3dca4131	0.098757155
57	0xbdaa1e09	-0.0830651
58	0xbe3f81af	-0.18701814
59	0xbd6ef881	-0.05834246
60	0x3eaf1eeb	0.34203276
61	0x3eb94fbe	0.3619365
62	0x3db8414d	0.0899683
63	0xbe8712b9	-0.26381472
64	0xbe21e654	-0.1581052
65	0xbe949eec	-0.29027498
66	0x3e03f54e	0.12886545
67	0xbda3d88c	-0.080002874
68	0xbde01908	-0.10942274
69	0xbddb2fa9	-0.1070245
70	0xbdfd85b6	-0.12379019
71	0x3cb3969c	0.021922402
72	0xbe43640f	-0.19081138
73	0x3dc158c6	0.0944076
74	0xbca59f4e	-0.020217564
75	0x3d60b70a	0.05486206
76	0x3e697316	0.22797808
77	0xbd04d6b8	-0.032431334
78	0x3d5569b3	0.052102756
79	0x3cbb09cb	0.022831818
80	0xbd5123b3	-0.051059436
81	0xbd7bd23b	-0.06147979
82	0xbb123c08	-0.0022313613
83	0x3e7f8e18	0.24956548
84	0xbcba146a	-0.022714812
85	0x3df1dd50	0.1180979
86	0xbe472477	-0.19447504
87	0xbddce041	-0.107849605
88	0x3da0ea98	0.07857245
89	0xbe086da2	-0.13323072
90	0x3e7ae211	0.245003
91	0xbdfe5637	-0.12418788
92	0x3f1a539d	0.60283834
93	0xbe5d5795	-0.21615441
94	0xbe02ff5a	-0.12792721
95	0x3c6f6786	0.014612084
96	0x3ebd3465	0.36954036
97	0xbe2fa4f3	-0.17152767
98	0x3dd5c27d	0.10437486
99	0x3f5100aa	0.8164164
100	0x3defceb3	0.117093466
101	0x3ed50bf8	0.41610694
102	0xbed1cdee	-0.40977424
103	0xbd59b7ed	-0.05315392
104	0x3e4c9977	0.19980417
105	0x3e691cfc	0.22764963
106	0x3e7c7548	0.24654114
107	0xbe46cd5f	-0.1941428
108	0xbe4e9d63	-0.20177226
109	0xbe813d6d	-0.25242177
110	0x3cf40c5e	0.029791053
111	0xbf2c4991	-0.67299753
112	0x3d8eb5bc	0.06968257
113	0xbdc903b4	-0.098151594
114	0x3f02e316	0.51127756
115	0x3ebc4252	0.36769348
116	0xbf20d477	-0.62824196
117	0xbeb4e30b	-0.3532947
118	0x3db0378e	0.08604346
119	0xbe040bcd	-0.12895127
120	0xbe112661	-0.14174797
121	0xbebff38e	-0.37490505
122	0xbe72186d	-0.2364213
123	0x3e1d583f	0.15365694
124	0xbf2f05bf	-0.6836814
125	0x3d918b17	0.071066074
126	0x3e39658b	0.18105142
127	0x3f223c2f	0.6337308
128	0xbf08ab49	-0.5338636
129	0x3f0d9c9a	0.5531708
130	0xbeacfcdb	-0.33786663
131	0xbe5a378b	-0.2131025
132	0xbe55caac	-0.20878094
133	0x3e6eda72	0.23325518
134	0xbea1b2f8	-0.31581855
135	0xbeb0b175	-0.3451039
136	0x3c995328	0.01871641
137	0xbe5cfaba	-0.2158002
138	0xbe53f4ed	-0.206989
139	0xbeba7292	-0.36415535
140	0xbe91b32b	-0.28457007
141	0xbea45b26	-0.3210079
142	0xbf7c7eb7	-0.9863085
143	0x3e2657fc	0.16244501
144	0xbe98cb2b	-0.29842505
145	0xbf39f6b3	-0.7264206
146	0xbcfa67dc	-0.030567102
147	0xbe3405ee	-0.17580387
148	0x3d0de3e1	0.03464115
149	0xbe69b552	-0.22823074
150	0xbe0ecb6c	-0.13944787
151	0x3ea1042d	0.31448498
152	0xbf24409c	-0.64161086
153	0xbecdfaac	-0.4023031
154	0xbeb91f0b	-0.36156496
155	0x3fbac09a	1.4590027
156	0xbea59bc6	-0.32345408
157	0x3d35c9da	0.044381954
158	0x3db9d335	0.09073488
159	0x3e15a465	0.14613493
160	0x3ed6daf7	0.41963932
161	0xbf03af15	-0.5143903
162	0x3e67ae49	0.22625078
163	0xbeb276fa	-0.34856397
164	0x3e21ae2b	0.15789096
165	0x3d6ff3f0	0.058582246
166	0x3f83ede2	1.0306971
167	0xbf0c9f0f	-0.54930204
168	0x3decf0d7	0.11569374
169	0x3e186097	0.14880596
170	0x3e81756b	0.25284895
171	0x3e3a8eb6	0.18218502
172	0x3e78326f	0.24237989
173	0x3e944641	0.2895985
174	0x3e210afd	0.15726848
175	0xbeaf37c6	-0.3422224
176	0x3ddb975c	0.10722229
177	0x3e97c9c9	0.29646137
178	0xbeb21912	-0.34784752
179	0xbf0a68f6	-0.5406641
180	0xbe7c9b26	-0.2466856
181	0x3e338356	0.1753057
182	0xbe0f2380	-0.13978386
183	0x3e0fb806	0.14035043
184	0x3e274e09	0.16338362
185	0xbe63ec25	-0.2225805
186	0xbf06772d	-0.525256
187	0x3c458beb	0.012057285
188	0x3e95b64a	0.29240638
189	0xbed4b18d	-0.4154171
190	0xbe1db45d	-0.15400834
191	0x3e4b2b95	0.19840844
192	0xbdd6acac	-0.10482153
193	0x3d03ccba	0.032177664
194	0x3ef32a1c	0.47493064
195	0x3e7b1f4e	0.2452366
196	0x3e2620dd	0.16223474
197	0xbd225d37	-0.039639678
198	0x3e6418f7	0.22275148
199	0xbc950081	-0.018188717
200	0xbdaa685b	-0.083206855
201	0x3f49ad7d	0.7878035
202	0x3e93346c	0.28750932
203	0x3f04c8d5	0.51868945
204	0xbdadb0ff	-0.08481025
205	0x3e2b82a9	0.16749062
206	0x3d8acf12	0.06777777
207	0xbde5a5cf	-0.11213266
208	0x3e3b452a	0.18288103
209	0x3da2ebe1	0.079551466
210	0xbe5f5de3	-0.21813159
211	0x3e19f8d4	0.15036327
212	0xbcc43fac	-0.023956142
213	0x3ef31a89	0.47481182
214	0xbf05a906	-0.52211034
215	0xbe854353	-0.26027927
216	0x3dfb9422	0.122841135
217	0x3e779fe4	0.24182087
218	0xbe9dbf66	-0.30810088
219	0xbf00d10f	-0.50319
220	0xbeea3daf	-0.45750186
221	0xbd93e88b	-0.072220884
222	0x3f5bd70b	0.85875005
223	0x3dcc5e66	0.099789426
224	0xbf57f472	-0.8435737
225	0x3e6797ef	0.22616552
226	0x3e805925	0.25068012
227	0x3dcbbb65	0.09947852
228	0x3e57cd04	0.21074301
229	0x3e4e948d	0.20173855
230	0xbe413c6e	-0.18870708
231	0xbe31fb97	-0.1738113
232	0xbe688e62	-0.22710565
233	0xbe384052	-0.17993286
234	0xbe661de4	-0.2247234
235	0x3d170958	0.036874145
236	0x3dc5cdd5	0.096584
237	0xbe9afc98	-0.3027084
238	0x3cf63814	0.030056037
239	0xbd7c18a1	-0.061546925
240	0xbe692623	-0.22768454
241	0x3f1d1f09	0.6137548
242	0xbe653783	-0.22384457
243	0xbe7daf59	-0.24773921
244	0x3f32849d	0.697336
245	0x3e90002e	0.28125137
246	0xbeecb796	-0.46233815
247	0xbe670b79	-0.2256297
248	0xbda7f804	-0.08201602
249	0x3d760079	0.060059045
250	0xbc067896	-0.008207461
251	0xbc1b16ec	-0.009465914
252	0x3ed2ed79	0.41196802
253	0xbe3f6125	-0.18689401
254	0xbf09260c	-0.5357368
255	0x3ebc1b05	0.36739364

encoder.fc2.bias f4 [20]
0	0x3e19616d	0.14978571
1	0x3f83aaf0	1.0286541
2	0xbb3ebf64	-0.0029105777
3	0x3eff062e	0.49809402
4	0xbd97ecd3	-0.074182175
5	0xbf12f6fb	-0.5740811
6	0x3eb4a4a5	0.35281864
7	0xbe9cd58b	-0.3063167
8	0xc011bc24	-2.2771082
9	0xbdadae2b	-0.084804855
10	0xbf517dcc	-0.81832576
11	0xbe4947cc	-0.19656295
12	0xbf26bbce	-0.6513032
13	0x3f0992e1	0.53739744
14	0xbf881f6b	-1.0634588
15	0xbeed414a	-0.46338874
16	0xbf439161	-0.76393706
17	0xbf5e6abb	-0.8688161
18	0xbf861b5a	-1.0477097
19	0xbe4eb803	-0.20187382

encoder.fc3.weight f4 [10, 20]
0	0xbd85c090	-0.06530869
1	0x3daeced8	0.08535546
2	0xbc624535	-0.013810446
3	0x3f09e5eb	0.5386645
4	0xbe99c4b5	-0.30032888
5	0xbeeed4c8	-0.46646714
6	0x3d94e837	0.07270854
7	0x3d3eddd6	0.046598278
8	0x3f5f1dc8	0.8715482
9	0xbd692904	-0.05692388
10	0x3e0d8dc3	0.13823609
11	0x3eb8285d	0.35968295
12	0xbe629845	-0.22128399
13	0x3ce5df0f	0.028060464
14	0xbd81a984	-0.06331161
15	0x3ea6ef84	0.3260461
16	0x3eaebd36	0.3412873
17	0xbf0445ac	-0.5166881
18	0x3ed6edf3	0.41978416
19	0x3e886d7e	0.26646036
20	0x3edf86be	0.43657488
21	0xbe5275a4	-0.20552689
22	0xbd1726e6	-0.03690233
23	0xbec7d861	-0.39032272
24	0x3e9af173	0.30262336
25	0xbe53f0fd	-0.20697398
26	0xbec7361c	-0.3890847
27	0x3ce708d2	0.028202448
28	0x3f52bde0	0.82320976
29	0x3e2b0ccc	0.167041
30	0x3da4c046	0.08044486
31	0x3ea4815a	0.32129937
32	0xbe18c412	-0.14918545
33	0xbe50fcfc	-0.20409006
34	0xbe9ba7ce	-0.30401462
35	0x3e8a50ea	0.27014858
36	0x3e8751b0	0.2642951
37	0x3ebb9932	0.36640316
38	0x3f15acb4	0.5846665
39	0x3f1531fc	0.58279395
40	0xbf4027ba	-0.7506062
41	0xbd18345f	-0.03715932
42	0x3d76a02b	0.06021134
43	0x3eb0036b	0.34377608
44	0x3e3f9be6	0.18711814
45	0x3e852a1a	0.26008683
46	0xbea44485	-0.32083526
47	0x3dbe248c	0.092843145
48	0xbea825d4	-0.3284136
49	0xbd27d09b	-0.040970426
50	0x3f53d5b2	0.8274795
51	0xbe687521	-0.22700931
52	0xbc75a585	-0.014993076
53	0x3c11b72f	0.008893772
54	0xbde2105e	-0.11038278
55	0x3e86c187	0.26319525
56	0xbdf19c5b	-0.117974006
57	0xbeb02c87	-0.34408972
58	0x3e6e74d6	0.23286757
59	0xbe88d139	-0.26722124
60	0xbc6079f7	-0.013700954
61	0xbeba1a1b	-0.36348042
62	0xbd1799c0	-0.03701186
63	0x3e0ff49f	0.1405816
64	0x3e634f8f	0.22198318
65	0xbe9f00cc	-0.31055295
66	0xbe0b81a6	-0.13623676
67	0xbc65d513	-0.014027852
68	0x3ef76593	0.48319682
69	0x3e83b7a0	0.25726032
70	0x3e17f2fb	0.14838783
71	0x3cf93490	0.030420572
72	0x3ea4a58b	0.3215755
73	0x3f05a824	0.5220969
74	0xbe50ca4d	-0.20389672
75	0x3e0ae65a	0.13564435
76	0x3e2ef420	0.17085314
77	0xbeaddd15	-0.33957735
78	0x3e364be9	0.17802395
79	0x3ebe9e5b	0.3723019
80	0xbbb2e656	-0.005459587
81	0x3e83ceb6	0.25743645
82	0x3c75fb83	0.015013578
83	0xbed33a08	-0.41255212
84	0xbd1c7618	-0.03819856
85	0x3ea074d7	0.31339142
86	0x3ec9accf	0.39389655
87	0xbd0e5c15	-0.034755785
88	0x3e863f88	0.26220345
89	0xbe8cf458	-0.2753017
90	0xbe0119ce	-0.126075
91	0x3ea63e0f	0.32469222
92	0xbec597d7	-0.38592407
93	0xbf17c70a	-0.59288085
94	0x3ecb1f0a	0.39672118
95	0xbdcef75e	-0.10105775
96	0x3df248ba	0.11830278
97	0x3eeb7d6d	0.4599413
98	0xbd7bc2c6	-0.061465047
99	0x3db99ef8	0.09063524
100	0x3e45f43b	0.19331448
101	0x3f26929d	0.65067464
102	0x3d355ac8	0.04427603
103	0x3ec8ec82	0.3924294
104	0x3d451788	0.048118144
105	0xbea8a601	-0.3293915
106	0x3eb63db0	0.3559394
107	0xbed958bd	-0.42450514
108	0xbf3c81a6	-0.7363533
109	0x3cff23c5	0.031144986
110	0x3ea1207d	0.314701
111	0xbe93b153	-0.28846225
112	0xbd693a04	-0.056940094
113	0x3ea10b48	0.3145392
114	0xbf8d7fbf	-1.105461
115	0xbe58c3d0	-0.21168447
116	0xbd34c67d	-0.044134606
117	0xbeb164ff	-0.34647366
118	0xbe614ea0	-0.2200265
119	0x3e2b9fb4	0.1676014
120	0x3f923b6b	1.1424383
121	0x3e3a437d	0.18189807
122	0x3a8dd8e6	0.0010822087
123	0xbda222df	-0.079168074
124	0xbf04bd4b	-0.5185134
125	0xbf001d87	-0.50045055
126	0x3ea889f5	0.32917753
127	0x3ebd9c36	0.37033242
128	0x3d3949e1	0.045236472
129	0x3dcd6656	0.10029285
130	0xbe931899	-0.28729704
131	0xbbb13262	-0.0054076174
132	0xbe463094	-0.19354469
133	0x3e82a229	0.25514343
134	0xbf420816	-0.7579359
135	0xbed6dbd3	-0.41964588
136	0xbea5a981	-0.32355884
137	0xbece9f70	-0.40356016
138	0xbe0dbef7	-0.13842379
139	0x3f049105	0.5178378
140	0xbf1a8d67	-0.6037201
141	0x3eb113b0	0.34585333
142	0x3d175a21	0.036951188
143	0xbdcf89bc	-0.101336926
144	0xbeab4ae9	-0.3345559
145	0x3f08431e	0.5322741
146	0x3eb7d314	0.35903227
147	0xbf25505b	-0.6457574
148	0xbea9d845	-0.33172813
149	0xbe1966b4	-0.14980584
150	0x3d56fd5b	0.052487712
151	0xbc7f509a	-0.015583182
152	0x3ef519ad	0.47871152
153	0xbecc69c9	-0.39924458
154	0xbd9be408	-0.07611853
155	0x3e1688dd	0.14700647
156	0xbe97b06a	-0.2962678
157	0xbeb92cdd	-0.3616704
158	0xbe6651e9	-0.22492184
159	0xbf0ec152	-0.55763733
160	0x3e9adcd1	0.30246595
161	0xbf0887b3	-0.5333206
162	0x3d683a2b	0.0566961
163	0xbe89e27d	-0.2693061
164	0xbe5b62b3	-0.2142437
165	0xbe9b3871	-0.303165
166	0x3f064e44	0.52463174
167	0x3efa1cf2	0.4885021
168	0x3f66c9ad	0.9015148
169	0x3e3233fe	0.17402646
170	0x3df0c49d	0.11756251
171	0x3e996ef4	0.29967463
172	0xba67346c	-0.0008819762
173	0xbe088440	-0.133317
174	0x3dfc6aba	0.12325044
175	0x3d459eaf	0.048247036
176	0x3f22d364	0.63603806
177	0x3ef274e8	0.47354817
178	0xbe11059d	-0.14162298
179	0x3eee9e0c	0.46604955
180	0x3e03dc4f	0.1287701
181	0xbefc97e7	-0.49334642
182	0xbc102cd5	-0.008799751
183	0xbebc243c	-0.36746395
184	0x3ee66a7d	0.4500312
185	0x3e9909ea	0.29890376
186	0xbe68b5f4	-0.2272566
187	0xbe0d8a95	-0.13822396
188	0x3f0bd01e	0.54614437
189	0x3dc807d0	0.09767115
190	0x3f0ee8e6	0.55824125
191	0xbe7e8fc9	-0.24859537
192	0x3e0974b3	0.13423423
193	0xbe5a3acb	-0.2131149
194	0x3f16ead5	0.58952075
195	0x3f04b15f	0.51833147
196	0x3e189d38	0.14903724
197	0xbe911526	-0.28336447
198	0x3eccc7cf	0.39996192
199	0xbec5ed02	-0.38657385

encoder.fc3.bias f4 [10]
0	0xbf9ec538	-1.2403936
1	0xbf9a3d23	-1.2049907
2	0x3ee8be66	0.45457762
3	0xbe957992	-0.29194313
4	0xbee93afd	-0.45552817
5	0x3f66a290	0.900918
6	0xbe006328	-0.12537825
7	0x3efc901d	0.493287
8	0xbf86d964	-1.0535092
9	0xbf0bc518	-0.54597616

encoder.fcout_mu.weight f4 [2, 10]
0	0xbd435b01	-0.04769421
1	0xbf17a02f	-0.59228796
2	0xbed4c20e	-0.41554302
3	0xbf46b9fd	-0.77627546
4	0x3f0698e4	0.5257704
5	0xbe4f988a	-0.20273033
6	0x3dac1aea	0.08403571
7	0x3e0db695	0.13839181
8	0x3ea3a888	0.31964517
9	0xbdd329b9	-0.10310692
10	0xbe3bd036	-0.18341145
11	0xbf007c3d	-0.5018957
12	0x3e3e2126	0.18567333
13	0x3bebae01	0.0071923737
14	0xbe120c14	-0.1426242
15	0xbebdc01a	-0.37060624
16	0xbe696fc2	-0.22796538
17	0x3e2c6f6d	0.1683938
18	0xbf0352cb	-0.5129821
19	0x3e6cc508	0.23122036

encoder.fcout_mu.bias f4 [2]
0	0x3e33bfef	0.17553686
1	0x3cb9fd29	0.022703724

encoder.fcout_sigma.weight f4 [2, 10]
0	0x3f90d7d9	1.1315871
1	0x3e487a18	0.19577825
2	0xbe4ea265	-0.20179136
3	0x3fabbe4f	1.3417453
4	0x3f2c28b9	0.6724964
5	0xbdf69c49	-0.12041528
6	0xbd2c435d	-0.04205643
7	0xbddd83f7	-0.10816186
8	0x3f0b2986	0.54360235
9	0xbdd84eb2	-0.10561885
10	0x3f86a6ee	1.0519693
11	0x3f191314	0.59794736
12	0xbeaf5de3	-0.34251317
13	0xbbc9fa17	-0.0061638462
14	0xbdaaa993	-0.08333125
15	0xbf6c6bce	-0.92351997
16	0xbe4d87dd	-0.20071359
17	0xbf2c4905	-0.6729892
18	0x3f904468	1.1270876
19	0x3ee0c70d	0.43901864

encoder.fcout_sigma.bias f4 [2]
0	0xbf8b74b3	-1.0894989
1	0xbf88abeb	-1.0677465

decoder.fcin.weight f4 [10, 2]
0	0x3e648920	0.22317934
1	0xbf5df2a0	-0.8669834
2	0x3f190ba5	0.59783393
3	0xbce8014e	-0.028320935
4	0x3eb23176	0.3480336
5	0x3f86f012	1.0542014
6	0x3f676c7d	0.90399915
7	0x3e6d0970	0.23148131
8	0xbeab7568	-0.3348801
9	0x3fc2fd49	1.5233546
10	0xbf027e13	-0.50973624
11	0xbfb3f011	-1.4057637
12	0x3f37678d	0.7164238
13	0xbef1904e	-0.47180408
14	0xbf092f83	-0.5358812
15	0xbf0f3967	-0.55946964
16	0xbc3ea920	-0.011637002
17	0x3c4ac4b7	0.012376002
18	0x3ea7c28a	0.3276561
19	0xbfe7c401	-1.8106691

decoder.fcin.bias f4 [10]
0	0x3f8b20c6	1.0869377
1	0xbe9662f5	-0.29372373
2	0xbf9f3747	-1.2438744
3	0xbf6663cf	-0.89996046
4	0xbeddeca5	-0.43344608
5	0x3ef51fb0	0.47875738
6	0x3f5d3530	0.8640928
7	0xbf37b0b9	-0.7175403
8	0xbcdf2bc4	-0.027242549
9	0x3f27b037	0.6550326

decoder.fc1.weight f4 [20, 10]
0	0xbeeca8d0	-0.46222544
1	0x3e349cf6	0.17638001
2	0x3fbc5d3b	1.4715952
3	0x3f3fed7f	0.74971765
4	0x3e488c22	0.19584706
5	0xbe6ba342	-0.23011497
6	0xbda3733e	-0.07980965
7	0x3df47979	0.119372316
8	0x3d6dd732	0.058066554
9	0x3e8e0b5c	0.27743042
10	0x3e3dbde8	0.18529475
11	0x3eddaf5b	0.43297848
12	0xbce01c3b	-0.027357211
13	0x3e96652f	0.29374072
14	0x3bc9f407	0.0061631235
15	0x3c042931	0.008066461
16	0x3f65369a	0.8953644
17	0xbd4582f6	-0.048220597
18	0x3d89d96c	0.06730923
19	0xbebb8f17	-0.36632606
20	0x3eb56295	0.35426775
21	0x3f3e9852	0.7445117
22	0x3f19abc3	0.6002771
23	0x3f3c1128	0.7346368
24	0x3e9db97a	0.3080557
25	0xbe287bd6	-0.1645349
26	0x3f28b934	0.659076
27	0x3d8b6a11	0.0680734
28	0x3d6cb633	0.057790946
29	0xbef21ff9	-0.47290018
30	0x3d5cd0ac	0.053909943
31	0xbea84ebb	-0.32872567
32	0xbf4dcff9	-0.80395466
33	0xbf3bfe67	-0.7343506
34	0x3eb6dea0	0.35716724
35	0xbf0a433b	-0.54008836
36	0xbef8b319	-0.4857414
37	0xbf1a1ac4	-0.6019709
38	0xbc5b0a86	-0.013369208
39	0xbe155667	-0.14583741
40	0xbfb8e297	-1.444415
41	0xbde24a7a	-0.110493615
42	0x3fac6512	1.3468344
43	0x3ee3a201	0.44459537
44	0x3eb2fb0f	0.34957168
45	0xbd44afed	-0.04801934
46	0xbf60672c	-0.8765743
47	0x3e9a791d	0.30170527
48	0xbd70cc00	-0.0587883
49	0x3e18964f	0.14901088
50	0xbcdb4715	-0.026767293
51	0x3d1127c8	0.03543833
52	0xbe7c0d3f	-0.24614428
53	0x3e53cede	0.20684382
54	0x3ee660ee	0.44995826
55	0x3e611f25	0.21984537
56	0x3e8269da	0.25471383
57	0x3e2d57d0	0.16928029
58	0xbe1dff87	-0.15429507
59	0xbd4c2d8b	-0.04984812
60	0xbf18bd39	-0.5966373
61	0xbebada8e	-0.3649487
62	0x3eb6fff9	0.35742167
63	0xbf32dcd0	-0.69868183
64	0xbe5de656	-0.21669897
65	0x3f4d5cad	0.80219537
66	0xbd998168	-0.074953854
67	0x3e93a5f7	0.2883756
68	0xbe3f6b73	-0.18693332
69	0x3e30981b	0.17245524
70	0xbf16bef0	-0.588851
71	0xbee9e8d3	-0.45685443
72	0x3e11054b	0.14162175
73	0xbea759b0	-0.32685614
74	0xbf579a57	-0.8421988
75	0xbf037fca	-0.51366866
76	0xbf44957e	-0.76790607
77	0xbef97378	-0.48720908
78	0x3df5e472	0.12006463
79	0x3f54d505	0.8313754
80	0xbeb76b41	-0.35824016
81	0xbd624106	-0.055237792
82	0x3f6caf68	0.9245515
83	0x3e05aaeb	0.13053481
84	0xbe35fdb7	-0.17772566
85	0xbfa6b472	-1.3023818
86	0xbf092ae3	-0.53581065
87	0xbf0646de	-0.52451885
88	0xbd9fb8c0	-0.0779891
89	0xbe86a494	-0.26297438
90	0xbcc16270	-0.023606509
91	0xbd5d0508	-0.053959876
92	0x3e92ede3	0.28697118
93	0x3ddcff55	0.10790888
94	0xbd7a303e	-0.061081164
95	0xbe77af29	-0.24187912
96	0xbf07dfd4	-0.5307591
97	0x3e8616b6	0.26189202
98	0xbda7025a	-0.081547454
99	0x3ede4b5a	0.43416864
100	0xbf9bace1	-1.2162133
101	0xbf16c926	-0.5890068
102	0x3ecf7696	0.4052016
103	0xbf0c835b	-0.5488793
104	0x3f632c75	0.8873971
105	0x3c9d9737	0.019237144
106	0xbf9a5b58	-1.2059126
107	0x3e2f4c2c	0.17118901
108	0x3c9699c3	0.018383866
109	0xbf7a7978	-0.97841597
110	0xbde3d8f1	-0.11125363
111	0xbf0c5fd6	-0.54833734
112	0xbf5ccc89	-0.86249596
113	0xbf949375	-1.16075
114	0x3e78cd0a	0.24296966
115	0xbeb46da1	-0.3523989
116	0xbd4a6b73	-0.049418878
117	0xbf63d358	-0.8899436
118	0x3e62b8ba	0.2214078
119	0x3db36e7c	0.087613076
120	0x3fb4833e	1.4102552
121	0x3e3360cc	0.17517394
122	0xbfbd1737	-1.477271
123	0xbf0ebb43	-0.5575449
124	0xbe3d1a2a	-0.18467012
125	0x3f3b03eb	0.73052853
126	0x3f0f695d	0.56020147
127	0xbd120342	-0.03564764
128	0xbd2e3c45	-0.042537946
129	0x3ee8e783	0.4548913
130	0x3f13726c	0.5759647
131	0x3e70e6b7	0.2352551
132	0xbf4d06c6	-0.8008846
133	0x3eb678bb	0.35638985
134	0x3ec81df6	0.39085358
135	0x3e2eeddd	0.17082925
136	0xbdd86a18	-0.10567111
137	0xbe73e755	-0.23818715
138	0x3e39effa	0.1815795
139	0xbf3160f5	-0.6928857
140	0xbeb47b50	-0.3525033
141	0x3c3a663e	0.0113769155
142	0x3f12926b	0.57254666
143	0x3bfbb40e	0.0076813763
144	0x3eaa8079	0.33301142
145	0xbfb7adfd	-1.4349972
146	0x3eb9612c	0.3620695
147	0xbec1e862	-0.37872607
148	0x3db07359	0.08615751
149	0xbea431ed	-0.3206934
150	0xbe74a770	-0.23891997
151	0x3db89198	0.09012145
152	0x3f052e75	0.5202401
153	0x3f268599	0.65047604
154	0xbd804491	-0.06263078
155	0x3ebddbff	0.37081906
156	0x3c91d165	0.017800042
157	0x3f4a1210	0.7893381
158	0x3dc1cbd2	0.09462704
159	0xbe01b740	-0.1266756
160	0xbea01e5f	-0.3127317
161	0x3e733b78	0.23753154
162	0xbe8c8584	-0.27445614
163	0x3ea7882c	0.32721078
164	0x3dc1f24e	0.09470044
165	0x3f0ac120	0.54200935
166	0xbf314e37	-0.6925997
167	0x3e04ad76	0.12956795
168	0x3e7a09bd	0.24417777
169	0xbe7196f8	-0.23592746
170	0xbf2826f7	-0.65684456
171	0x3ed14803	0.40875253
172	0x3fbd3033	1.4780334
173	0x3f912fc6	1.1342704
174	0x3cde544c	0.027139805
175	0xbdb67176	-0.0890836
176	0xbe3bef38	-0.18352973
177	0x3cf63ba6	0.03005774
178	0xbd456e0e	-0.04820066
179	0x3e05e138	0.13074195
180	0xbf285b7c	-0.65764594
181	0xbd69d0ac	-0.05708377
182	0xbdac9737	-0.084272794
183	0x3d843588	0.06455523
184	0xbf4f4dba	-0.80977976
185	0xbe5422fb	-0.20716469
186	0xbf5f6e39	-0.8727756
187	0xbf0a960b	-0.541352
188	0x3e08d1a6	0.13361225
189	0x3e9bf43a	0.30459768
190	0x3f80e5f8	1.0070181
191	0xbe9046a8	-0.28178906
192	0xbfcd340f	-1.6031512
193	0xbf110adf	-0.5665721
194	0xbf4a8439	-0.79108006
195	0x3f8fbfcd	1.1230408
196	0x3e17c29b	0.1482033
197	0x3d9ee081	0.077576645
198	0xbd990bf3	-0.07472982
199	0x3f3b948c	0.7327354

decoder.fc1.bias f4 [20]
0	0xbda62031	-0.08111609
1	0x3dd48ff2	0.10379018
2	0xbf3641d8	-0.7119422
3	0xbf1ba391	-0.6079646
4	0xbec7cc5e	-0.39023107
5	0xbd3419d5	-0.043969948
6	0x3f2bf320	0.67167854
7	0x3e187024	0.14886528
8	0x3e8fcfac	0.2808813
9	0x3f1f538a	0.62236845
10	0xbe41f3c4	-0.18940645
11	0xbe5bc2c1	-0.21461011
12	0x3ec80e12	0.39073235
13	0xbf2bbe1d	-0.67086965
14	0x3f0de21c	0.5542314
15	0x3f6f6b3f	0.9352302
16	0x3f27efb8	0.65600157
17	0xbf04242d	-0.516177
18	0x3ebbe0ee	0.36695045
19	0x3e996315	0.29958406

decoder.fc2.weight f4 [30, 20]
0	0x3d78064a	0.060552873
1	0x3f29ce57	0.66330475
2	0xbb3f4f32	-0.0029191491
3	0xbf42ca62	-0.7609006
4	0x3e674f05	0.22588737
5	0xbd511684	-0.051046863
6	0xbe9504f0	-0.2910533
7	0x3b9385d4	0.0045020375
8	0x3e295d50	0.16539502
9	0xbbe1e6b4	-0.006893957
10	0xbf3bc8ca	-0.73353255
11	0xbeafe65c	-0.34355438
12	0x3de64616	0.112438366
13	0xbe98e6b3	-0.2986351
14	0x3d024c91	0.0318113
15	0xbd6c36be	-0.057669394
16	0xbe9d3c8e	-0.30710262
17	0x3eaa0940	0.33210182
18	0x3dcfca9f	0.10146069
19	0xbe1d588a	-0.15365806
20	0x3f42e41b	0.7612931
21	0xbd8005c5	-0.062511005
22	0x3f24a68d	0.64316636
23	0xbe909897	-0.28241417
24	0x3f2329f5	0.63735896
25	0x3d9c42dc	0.0762994
26	0xbe671ae6	-0.22568855
27	0x3e8aec1a	0.27133256
28	0x3f82f139	1.0229865
29	0x3f00e7b9	0.5035358
30	0xbec80925	-0.39069477
31	0xbf2eef3c	-0.6833379
32	0xbe28bf82	-0.16479304
33	0x3e0093d2	0.12556389
34	0x3f9046c7	1.12716
35	0x3ee4dea0	0.447011
36	0x3e2da396	0.16956934
37	0x3f2cd039	0.6750522
38	0x3f1e2d2b	0.6178767
39	0xbf983382	-1.1890719
40	0x3f54ff83	0.8320238
41	0x3f4ca6d2	0.7994205
42	0x3fc1489b	1.5100282
43	0xbef9cf61	-0.4879103
44	0x3d376205	0.044771213
45	0x3e358171	0.17725159
46	0xbf76dbb3	-0.96428984
47	0xbf55318d	-0.83278733
48	0x3f337767	0.7010407
49	0xbd1f95dd	-0.03896128
50	0x3e859bf9	0.2609556
51	0xbfa5079c	-1.2892947
52	0xbf7d222a	-0.98880255
53	0xbea9795e	-0.33100408
54	0x3ebc0625	0.36723438
55	0x3f097364	0.536917
56	0xbf897b23	-1.0740703
57	0x3ec95f6b	0.3933061
58	0x3ce5071d	0.027957493
59	0xbfce0976	-1.6096637
60	0x3a925cb7	0.0011166547
61	0x3e37efa1	0.17962505
62	0xbdf64daf	-0.12026536
63	0x3e3670c4	0.17816454
64	0xbd83c8fe	-0.064348206
65	0xbd546a55	-0.05185922
66	0x3e405b95	0.18784936
67	0xbe7446b2	-0.23855093
68	0x3c1aece4	0.009455893
69	0xbe012f34	-0.12615663
70	0xbe0c5f83	-0.1370831
71	0xbdc45a7c	-0.09587571
72	0xbe5b6135	-0.214238
73	0xbd3fff3a	-0.046874262
74	0x3d2a26fc	0.041541085
75	0x3e07a03d	0.1324472
76	0xbc572873	-0.013132202
77	0xbceb32bb	-0.028710714
78	0x3e0dc477	0.13844477
79	0x3df142f4	0.117803484
80	0xbe083119	-0.1329998
81	0xbe345236	-0.17609486
82	0xbd618c66	-0.055065535
83	0xbd0bd819	-0.034141634
84	0x3d78bfd6	0.060729824
85	0xbd4ffd64	-0.05077876
86	0xbe49aa24	-0.1969381
87	0x3c74868c	0.014924657
88	0xbc709d8a	-0.014685998
89	0xba679336	-0.0008833887
90	0x3ddfa66f	0.109204166
91	0xbdc271f2	-0.094943896
92	0x3d53d29a	0.051714517
93	0xbca1ea6f	-0.019765107
94	0xbd5f2b0f	-0.054484423
95	0xbd984ad2	-0.07436146
96	0xbe3e0bf1	-0.18559243
97	0x3d8cd477	0.06876462
98	0xbdcc172b	-0.099653564
99	0xbc84f3b7	-0.016229494
100	0xbe5e78a0	-0.21725702
101	0xbe92091b	-0.28522572
102	0x3dc70f78	0.09719747
103	0x3f926f75	1.1440264
104	0xbe0e7788	-0.13912785
105	0x3d6f1025	0.058365006
106	0xbe92c511	-0.28665975
107	0xbf085ffd	-0.53271466
108	0x3e16dc34	0.14732438
109	0xbe260926	-0.16214427
110	0x3fda9e22	1.7079508
111	0x3f061da7	0.52388996
112	0xbeb132f4	-0.34609187
113	0x3f5b3222	0.8562337
114	0x3f5e4d7e	0.86836994
115	0xbf561fed	-0.83642465
116	0x3e7aed90	0.24504685
117	0x3d5007a0	0.05078852
118	0xbe2c412f	-0.1682174
119	0xbe993dbf	-0.2992992
120	0x3d5d4031	0.054016296
121	0xbe0d5198	-0.13800657
122	0xbddb5c99	-0.10711021
123	0xbd011fd5	-0.031524498
124	0x3d1c502f	0.038162407
125	0xbdf34cd2	-0.11879887
126	0xbe829aaf	-0.2550864
127	0xbd8dd737	-0.069258146
128	0x3bfbe11a	0.0076867463
129	0xbc065e4f	-0.008201196
130	0xb995f278	-0.00028600148
131	0x3c9f6574	0.019457556
132	0xbb223045	-0.002474801
133	0xbe30ae56	-0.17254004
134	0xbd9e0d1c	-0.07717344
135	0x3d8f5dc8	0.07000309
136	0xbe2b6a32	-0.16739729
137	0xbd82d3a7	-0.06388026
138	0xbdda2eb2	-0.10653438
139	0xbc932513	-0.017962014
140	0x39fc51d7	0.0004812616
141	0xbdd57b03	-0.10423853
142	0xbf638633	-0.88876647
143	0xbd710a8c	-0.05884795
144	0xbdcb1329	-0.09915764
145	0xbe3140ad	-0.17309828
146	0x3f4a132a	0.7893549
147	0x3f994230	1.1973324
148	0x3f26e884	0.6519854
149	0x3f02f436	0.51153886
150	0x3f36eb3f	0.7145271
151	0x3f5b6a4a	0.8570906
152	0x3e912cd4	0.28354514
153	0xbfa66498	-1.2999449
154	0x3f03ec3c	0.5153234
155	0x3e728dbc	0.2368688
156	0xbe1076d3	-0.14107828
157	0xbe09cf42	-0.13457969
158	0x3f29750c	0.66194224
159	0x3f0eca51	0.5577746
160	0x3ee5d88d	0.44891778
161	0xbe1fbb84	-0.15598875
162	0x3bebd052	0.0071964646
163	0x3e278083	0.16357617
164	0x3fb1e2fd	1.3897396
165	0x3ea21ced	0.31662694
166	0x3eb1ea40	0.3474903
167	0xbd8d76f5	-0.06907455
168	0x3e499f1f	0.19689606
169	0xbe6fac63	-0.23405604
170	0x3e9b8cab	0.3038076
171	0x3e8d8d2c	0.27646768
172	0xbf5fbde4	-0.87399125
173	0xbe6dc029	-0.23217835
174	0x3cada2b5	0.021195749
175	0x3d9538f9	0.07286257
176	0x3db6927a	0.08914657
177	0x3e5d661d	0.21620984
178	0xbe9511b7	-0.29115078
179	0xbe3bd4af	-0.18342851
180	0x3eaef64a	0.3417228
181	0xbd44811b	-0.047974687
182	0x3d78f918	0.06078443
183	0xbec53922	-0.3852015
184	0x3e40cbdc	0.18827766
185	0xbe2a90a3	-0.16656737
186	0x3c727383	0.014798048
187	0x3f11b717	0.5692
188	0xbdc3a302	-0.09552576
189	0xbe901699	-0.2814224
190	0xbebc28fe	-0.36750025
191	0x3e5774b5	0.21040614
192	0xbe0f3492	-0.13984898
193	0xbdb3c505	-0.08777813
194	0xbd0b3ccb	-0.033993524
195	0xbdf20953	-0.11818185
196	0x3d6e5e3b	0.058195334
197	0x3f216053	0.63037604
198	0x3e2bfcb6	0.1679562
199	0xbc972fa5	-0.018455336
200	0x3da85530	0.08219373
201	0xbef65b73	-0.48116645
202	0x3e34f04e	0.17669794
203	0x3f80b280	1.0054474
204	0x3e625df1	0.22106148
205	0xbd9fd247	-0.07803779
206	0xbef2817a	-0.47364408
207	0x3f28db30	0.65959454
208	0x3ed380cb	0.413092
209	0xbe9187b4	-0.28423846
210	0x3e709897	0.23495708
211	0x3ebe997a	0.37226468
212	0xbf0fcdb9	-0.5617328
213	0xbda713c5	-0.081580676
214	0xbdb9cbcc	-0.09072074
215	0xbfa2d0c0	-1.2719955
216	0xbf17bc67	-0.59271854
217	0xbecef92f	-0.40424487
218	0x3e7e8d69	0.24858631
219	0xbf3f31be	-0.74685276
220	0xbefcff51	-0.4941354
221	0xbee9513c	-0.4556979
222	0xbeab5a18	-0.33467174
223	0x3a83a40e	0.0010043399
224	0xbe21e796	-0.15811
225	0x3de11719	0.10990734
226	0xbdd54bbb	-0.10414835
227	0xbe392c82	-0.18083385
228	0xbf897768	-1.0739565
229	0x3cd49ede	0.02595466
230	0xbf2baddf	-0.6706218
231	0x3ee2cc1b	0.44296345
232	0x3edad806	0.42742938
233	0x3e4e12cd	0.2012436
234	0xbfad7b39	-1.355323
235	0xbef1d0d3	-0.47229633
236	0x3c8d98fb	0.01728486
237	0xbf213f15	-0.6298688
238	0xbc1ea23c	-0.009682234
239	0x3f6de0b2	0.9292098
240	0xbe41606e	-0.18884441
241	0xbd1fd76a	-0.039023794
242	0x3d84e97c	0.06489846
243	0x3dae3f1e	0.085081324
244	0x3e08a20b	0.13343064
245	0xbde7c279	-0.113163896
246	0x3d4273a3	0.04747356
247	0xbdd015ec	-0.10160431
248	0xbd3a6771	-0.045508806
249	0x3d8cdccf	0.068780534
250	0xbd625d6a	-0.055264868
251	0xbd8093c8	-0.06278187
252	0xbcaccb0d	-0.021092916
253	0xbda6d412	-0.08145918
254	0xbce4cb74	-0.027929045
255	0x3c894dcd	0.016760731

decoder.fc2.bias f4 [30]
0	0x3d331339	0.043719504
1	0x3e843832	0.25824124
2	0xbc352908	-0.011057146
3	0xbe1c0564	-0.15236431
4	0x3e3da67e	0.18520543
5	0xbe62b25e	-0.22138354
6	0x3d2ae382	0.041720875
7	0x3f5f0ffc	0.87133765
8	0xbeeef56e	-0.46671623
9	0x3e9a3f5a	0.30126458
10	0xbf883489	-1.0641032
11	0xbed334ad	-0.41251126
12	0x3dbd1267	0.092320256
13	0xbe726d7e	-0.2367458
14	0x3f3e94ef	0.74446005
15	0xbe0baf8e	-0.13641188
16	0x3a5a8c23	0.0008336922
17	0x3eec5424	0.46157944
18	0xbf477bcb	-0.7792327
19	0x3f0cbfc4	0.5498011
20	0xbe901b79	-0.2814596
21	0xbe102207	-0.1407548
22	0x3d9abcec	0.07555565
23	0x3f415141	0.7551461
24	0x3e3aefa9	0.18255486
25	0x3f005b5f	0.5013942
26	0x3da7d641	0.081951626
27	0x3faf5307	1.3697213
28	0x3ce20ad1	0.027593048
29	0x3e8665b9	0.26249483

decoder.fc3.weight f4 [40, 30]
0	0x3ce5cbb7	0.02805124
1	0xbea65b72	-0.32491642
2	0xbde710f5	-0.11282531
3	0xbcf8e6a5	-0.030383417
4	0xbc0c2197	-0.00855293
5	0xbe3611e3	-0.1778026
6	0x3be45ecd	0.006969309
7	0xbdc88a0c	-0.09791955
8	0xbd57e356	-0.05270704
9	0xbb9f3d64	-0.0048596133
10	0x3d824c50	0.06362212
11	0x3ebe539e	0.3717317
12	0x3c5a553c	0.0133259855
13	0x3e431526	0.19051036
14	0x39e6215b	0.0004389387
15	0xbbc33e11	-0.0059583266
16	0x3b1ae75d	0.0023636438
17	0xbe35caaa	-0.17753091
18	0x3cb30bed	0.021856273
19	0x3e3479d7	0.17624603
20	0x3ba84f5b	0.005136413
21	0xbd145caf	-0.036221202
22	0xbbd3c03b	-0.0064621246
23	0x3e067240	0.1312952
24	0x3c7f7ce2	0.015593739
25	0xbe1634d3	-0.14668588
26	0xbd06291c	-0.03275405
27	0xbde0e495	-0.109810986
28	0xbcf35c84	-0.0297072
29	0x3d8a2f66	0.06747322
30	0x3e3dcc2d	0.18534918
31	0xbe6f7816	-0.23385653
32	0xbee9d69e	-0.45671552
33	0xbd7d91dc	-0.06190668
34	0x3bbb599e	0.0057174703
35	0x3eb8e297	0.36110374
36	0x3cd3f76c	0.025874816
37	0x3e42f465	0.19038542
38	0xbcf392b4	-0.02973304
39	0xbe467555	-0.19380696
40	0x3f1b0c5f	0.6056575
41	0xbece51de	-0.40296835
42	0x3ba44419	0.0050130007
43	0xbed33b44	-0.41256154
44	0xbebff547	-0.3749182
45	0x3b7ffb37	0.0039059648
46	0x3cc2b99e	0.02377015
47	0x3e2a6211	0.16638972
48	0xbe32bcc0	-0.17454815
49	0x3ef3ee3f	0.47642705
50	0x3e23ea42	0.16007331
51	0x3e17c0c5	0.1481963
52	0xbc809263	-0.015694803
53	0x3e17f477	0.1483935
54	0xbdaa402b	-0.0831302
55	0x3e418b1b	0.18900721
56	0x376bc4de	1.4052928e-05
57	0xbdaa270f	-0.08308231
58	0xbcd08da0	-0.025458157
59	0xbdb7cf4e	-0.08975087
60	0x3cf82d92	0.030295167
61	0xbeaa8f17	-0.33312294
62	0xbe015f8a	-0.12634102
63	0xbd3ba741	-0.045813803
64	0xbd11136d	-0.035418916
65	0xbe2677d9	-0.16256656
66	0xbbb53d69	-0.0055310023
67	0xbdb23016	-0.08700578
68	0xbd2e4816	-0.042549215
69	0xbb561d03	-0.00326711
70	0x3dabed14	0.083948284
71	0x3eb93e11	0.36180165
72	0x3cfe6068	0.03105183
73	0x3e382e0c	0.17986315
74	0xbc48c4a1	-0.012253911
75	0xbb175a91	-0.0023094753
76	0xbb1dc5ce	-0.00240742
77	0xbe31d91b	-0.17367975
78	0x3ca50ca7	0.020147635
79	0x3e4f7811	0.20260645
80	0x3c2a6164	0.010399196
81	0xbce07f10	-0.027404338
82	0xbcd9b806	-0.026577007
83	0x3e0fa4a8	0.14027655
84	0xbc821130	-0.015877336
85	0xbe124bbc	-0.14286703
86	0xbc4adf6a	-0.012382368
87	0xbe83430d	-0.25637093
88	0xbc90f50f	-0.017694978
89	0x3d871c64	0.06597212
90	0x3df8f195	0.12155453
91	0xbe135ebb	-0.14391606
92	0xbef363c6	-0.4753706
93	0x3b174339	0.002308084
94	0xbc3d45f4	-0.011552323
95	0x3ebfcfb8	0.37463164
96	0xbc298d63	-0.010348651
97	0x3e24d4fa	0.16096869
98	0xbdb7dae4	-0.08977297
99	0xbe316f2d	-0.17327566
100	0x3f0e0c14	0.5548718
101	0xbec27dda	-0.37986642
102	0xbb98a333	-0.0046581267
103	0xbec402d6	-0.38283414
104	0xbebcc0a2	-0.36865717
105	0x3d412c40	0.04716134
106	0x3c49c6be	0.01231545
107	0x3da76fd2	0.08175625
108	0xbe389b7f	-0.18028067
109	0x3ed64a40	0.41853523
110	0x3e2d4e20	0.16924334
111	0x3c867e2c	0.016417585
112	0xbb668aae	-0.0035177874
113	0xbd8e6f25	-0.06954793
114	0x3d328428	0.043583065
115	0x3e2f3538	0.17110145
116	0x3a96ac30	0.0011495408
117	0xbe3de682	-0.18544963
118	0x3cd3f409	0.025873201
119	0xbe16a495	-0.1471122
120	0x3d0d4bc0	0.03449607
121	0xbeabfc2e	-0.33590835
122	0xbe0a79e6	-0.13523063
123	0xbd2144ba	-0.039372183
124	0xbc5f8754	-0.013643105
125	0xbe19e1f8	-0.15027606
126	0xbada6ca8	-0.0016664462
127	0xbda2e6a0	-0.079541445
128	0xbd4c27c7	-0.049842622
129	0xbc590c61	-0.01324758
130	0x3db1d307	0.086828284
131	0x3eb2babe	0.34908098
132	0x3cc9dd9f	0.02464181
133	0x3e29ada4	0.16570145
134	0xbccccb90	-0.02499941
135	0x38ac262c	8.208709e-05
136	0xbc64b6e1	-0.013959617
137	0xbe282323	-0.16419654
138	0x3bf3429a	0.007423711
139	0x3e55e959	0.20889796
140	0x3c3c8844	0.011507098
141	0xbc87fc64	-0.016599841
142	0xbc538a05	-0.012911324
143	0x3e03d575	0.12874396
144	0xbc6179ce	-0.013761951
145	0xbe1209d6	-0.14261565
146	0xbca41fdb	-0.020034721
147	0xbe9ff520	-0.31241703
148	0xba0edf6e	-0.0005450164
149	0x3d67c1e4	0.056581393
150	0x3cc53b0f	0.024076013
151	0xbd87599e	-0.0660889
152	0xbefcaaee	-0.4934916
153	0x3c71ec70	0.014765844
154	0xbd112686	-0.03543713
155	0x3ece779b	0.40325627
156	0xbd52294d	-0.05130892
157	0x3e1e1f65	0.15441664
158	0xbd34c28e	-0.044130854
159	0xbdd04887	-0.101700835
160	0x3f0e4f7a	0.5559002
161	0xbeaab37c	-0.3334006
162	0xbcc539fb	-0.024075499
163	0xbe9fdc39	-0.31222704
164	0xbec5148f	-0.38492247
165	0x3c781f8a	0.015144238
166	0xbc29f6fa	-0.010373825
167	0xbcd68cdb	-0.026190212
168	0xbe10d61c	-0.14144176
169	0x3edcb9f8	0.43110633
170	0x3e3860d3	0.18005686
171	0xbceb4b1b	-0.028722337
172	0xbc96e1c4	-0.0184182
173	0xbe30a7c0	-0.17251492
174	0x3d820e06	0.06350331
175	0x3e1cfbf6	0.1533049
176	0xbcdd700e	-0.02703097
177	0xbe0764a0	-0.13221979
178	0x3bc941fd	0.0061418996
179	0xbe45ff8c	-0.19335765
180	0x3ce9bda0	0.028532803
181	0xbeaaa638	-0.3332994
182	0xbe1a4de4	-0.15068775
183	0xbcf13a73	-0.029446816
184	0xbcc54406	-0.024080288
185	0xbe10396d	-0.14084406
186	0x3b11f002	0.00222683
187	0xbd9fd904	-0.07805064
188	0xbd5c45b2	-0.053777404
189	0xbc785fbd	-0.015159545
190	0x3dcbee2d	0.09957538
191	0x3eafc32f	0.343286
192	0x3cb7474a	0.02237286
193	0x3e23b96a	0.15988699
194	0xbd22e2be	-0.03976702
195	0x3aa7c037	0.0012798373
196	0xbc62cf9b	-0.013843442
197	0xbe307a2b	-0.17234103
198	0x3b0940e3	0.0020943217
199	0x3e58aad0	0.2115891
200	0x3cad89a3	0.021183794
201	0xbb587083	-0.0033026047
202	0xbbc5770f	-0.006026156
203	0x3df993af	0.121863715
204	0x3b5d71f2	0.003378984
205	0xbe085d4d	-0.13316841
206	0xbb97e1ac	-0.0046350565
207	0xbd981781	-0.07426358
208	0xba9a457a	-0.0011769973
209	0x3d515326	0.051104687
210	0xbdcd3ec2	-0.10021736
211	0xbca175ee	-0.019709554
212	0xbefa76b3	-0.48918685
213	0x3c97ac60	0.018514812
214	0xbc4debd4	-0.012568433
215	0x3ed4b297	0.41542503
216	0xbd7fbab7	-0.062433925
217	0x3df0cf4d	0.117582895
218	0x3c681631	0.014165447
219	0xbd15af34	-0.03654404
220	0x3ef783f0	0.48342848
221	0xbe95802b	-0.29199347
222	0xbd039096	-0.03212031
223	0xbe8a4a87	-0.27009985
224	0xbed2b4f8	-0.41153693
225	0x3c72978f	0.014806642
226	0xbd3aba87	-0.045588043
227	0xbde90403	-0.11377718
228	0xbe038116	-0.12842211
229	0x3ede3e2e	0.43406814
230	0x3e38095d	0.17972322
231	0xbd087896	-0.033318125
232	0xbc487fbb	-0.012237485
233	0xbea0988f	-0.31366393
234	0x3d3a6e08	0.04551509
235	0x3e00cdfc	0.12578577
236	0xbd46330c	-0.048388526
237	0x3d3f8c1c	0.046764478
238	0xbcb5b6f9	-0.022181975
239	0xbe6c7e45	-0.23095043
240	0x3cbb0d73	0.022833562
241	0xbeab75d6	-0.3348834
242	0xbe275696	-0.16341624
243	0xbc983aa9	-0.018582659
244	0xbb6af8ff	-0.003585398
245	0xbe02b858	-0.12765634
246	0x3c494422	0.012284311
247	0xbd984a6f	-0.07436072
248	0xbd578a67	-0.052622225
249	0xbc52ff5e	-0.012878267
250	0x3ddfef6e	0.109343395
251	0x3eaa53cd	0.3326706
252	0x3c0dac6b	0.008647065
253	0x3e1ccf3d	0.1531343
254	0xbd50e2d1	-0.05099756
255	0xbb7ee3dd	-0.0038893141

decoder.fc3.bias f4 [40]
0	0xbf2c2a00	-0.67251587
1	0xbf0b285b	-0.5435845
2	0xbf0b8ee3	-0.545149
3	0xbeae17f8	-0.34002662
4	0xbf018e37	-0.5060763
5	0xbe86ec28	-0.26352048
6	0xbf3c0cdd	-0.7345713
7	0xbe9de16c	-0.30836046
8	0xbf372201	-0.7153626
9	0xbe78fd10	-0.24315286
10	0xbf262d07	-0.64912456
11	0xbdaa8c73	-0.0832757
12	0xbf24f893	-0.64441794
13	0x3ad168c9	0.0015976663
14	0xbf1c6eba	-0.61106455
15	0xbd58a31a	-0.05288992
16	0xbf2f3906	-0.68446386
17	0xbcfa63e3	-0.030565208
18	0xbf0cb3d0	-0.5496187
19	0x3dc201d6	0.094730064
20	0xbf1a2b63	-0.6022245
21	0x3d53daf9	0.0517225
22	0xbf185850	-0.59509754
23	0x3dc20a8d	0.09474669
24	0xbf0e5c80	-0.55609894
25	0x3df12dc1	0.11776305
26	0xbf1a5950	-0.6029253
27	0x3dfb7d7a	0.12279792
28	0xbf01f78e	-0.50768363
29	0x3e634b8f	0.22196792
30	0xbf0a3ac6	-0.5399593
31	0x3e609827	0.21933042
32	0xbf07f4f9	-0.53108174
33	0x3e5cad5c	0.21550506
34	0xbf1f5e93	-0.62253684
35	0x3e8e5487	0.27798864
36	0xbf06d88b	-0.5267417
37	0x3def0b83	0.116721176
38	0xbf090cfa	-0.53535426
39	0x3e457b40	0.19285297
