inverted_pendulum/trained_models/pend_curr_lr_0.001_wd_0.0001_gam1_0.75_gam2_0.5_hor_3_epo_20.pt (torch, 4567 bytes, 6 tensors)

fc_in.weight f4 [15, 15]
000000 99 b1 98 3c 3d a8 5f 3d b4 f7 c6 bc 1b 69 3f 3d
       0.018639373 0.054603804 -0.024288036 0.046731096
000010 71 ac f6 bd f9 16 5d bd 39 bd 92 be ed e0 06 bd
       -0.12044609 -0.053976987 -0.2865999 -0.03292935
000020 38 94 a4 bd e4 6c 95 3c 21 59 99 be 27 f2 9f bd
       -0.08036083 0.0182404 -0.29950812 -0.07809859
000030 3d 28 99 ba 4b 13 02 be ec 85 da 3d 88 39 26 3e
       -0.0011684966 -0.12702672 0.10670075 0.16232884
000040 46 c6 ee be 73 24 bc bd 9b 52 37 3e 00 4a 99 be
       -0.46635646 -0.0918664 0.17902605 -0.2993927
000050 77 a6 23 3e 8e 95 f9 bd b9 7e a7 bd 3b 98 0f bd
       0.1598147 -0.121867284 -0.08178467 -0.035057288
000060 04 ae 4b be ce f7 ee bd 37 c6 40 3d 2f b1 01 3e
       -0.198906 -0.11668359 0.047064032 0.12665246
000070 07 49 0f 3f 42 69 11 bd 6c 19 3c bd 75 f9 35 3e
       0.55970806 -0.035500772 -0.04592268 0.17770942
000080 fb 91 7b 3d 3b e0 6a be b7 37 e6 bd a5 3c d1 3b
       0.061418515 -0.229371 -0.112410955 0.006385403
000090 48 9c 48 be 44 43 7f 3e ad 64 c7 bc 5b 72 5f bd
       -0.19590867 0.24928004 -0.024339998 -0.054552417
0000a0 33 04 85 3d b6 c0 d5 3d f6 09 b5 bc ad 39 b6 3e
       0.064949416 0.10437147 -0.022099476 0.35590878
0000b0 e9 43 ae bd c3 3a ae 3e 68 e7 a9 3e 2d 17 0d 3d
       -0.085090466 0.34029207 0.3318436 0.03444593
0000c0 4d 5d 9c 3e 9a 08 4d 3d 84 4e 8e 3d 54 4b d8 3e
       0.30539933 0.05005703 0.069485694 0.4224497
0000d0 52 78 c0 3e 46 0b ac bd 14 90 e2 3e 23 d1 a1 3e
       0.37591797 -0.08400588 0.44250548 0.3160487
0000e0 fc a2 c2 bb c3 7d bc 3e b4 8a d5 bd a9 af ff 3c
       -0.0059398394 0.368147 -0.10426846 0.031211691
0000f0 ac 69 af 3e 8e aa 29 3e 71 f5 d0 3b 0e 82 a4 3d
       0.3426031 0.16568968 0.006376915 0.080326185
000100 53 ce 90 3e c1 94 a8 3b ff c8 99 3e 07 60 3d 3d
       0.28282413 0.005144686 0.3003616 0.046234157
000110 c4 b3 25 bd 06 c8 9b bd 44 37 36 be ad bb b4 3c
       -0.04045464 -0.07606511 -0.1779452 0.022062147
000120 d9 f2 81 3e 7b 11 9a be 1d 27 af bd b7 cc 91 3d
       0.2538059 -0.30091462 -0.08552382 0.071191244
000130 42 99 6b 3d 9f 17 33 bd 8f cd 89 3c 11 9f 49 3e
       0.057519205 -0.0437237 0.01682165 0.19689585
000140 26 97 9f bb 59 1f 06 be ab 35 90 bd 7b c0 c8 bd
       -0.004870313 -0.13097896 -0.07041486 -0.09802338
000150 0e 2d 4d be 76 47 6f be 72 a9 80 bd 8b d4 bf 3d
       -0.20036718 -0.23367104 -0.06282319 0.09366711
000160 0a 23 fa be 17 7c 04 be c0 ea 0e bd de 3e 16 bc
       -0.48854858 -0.12937962 -0.034891844 -0.009170262
000170 f0 ca da 3c ed 19 3a be 7f 69 6b bd 0c 1a 60 3c
       0.026708096 -0.18173952 -0.057473656 0.013678085
000180 d1 e8 b3 3d 34 91 9b 3e 2f 7b f6 3b 47 75 e7 bd
       0.087846406 0.3038422 0.007522009 -0.11301666
000190 a1 3a 48 3e 72 01 b4 3d 6b 8e 86 3d 8a df 49 bf
       0.19553615 0.08789338 0.06570133 -0.7885672
0001a0 54 5f 53 b9 44 9c 66 bc 97 24 12 3e 8d 09 39 bd
       -0.0002015804 -0.014075343 0.1427177 -0.045175124
0001b0 2f 63 1a be a8 a1 68 3f 20 2e b1 3d b7 9b 12 3e
       -0.15076898 0.9087167 0.08651376 0.14317213
0001c0 b1 cf a6 3f a6 5d 7e bd fe 55 42 be 8d db a1 3f
       1.3032132 -0.06210103 -0.18978116 1.2645127
0001d0 a6 42 e4 3c 02 0f 05 3e 0e 47 c2 3f d2 7e 80 3c
       0.027863812 0.12994006 1.5177934 0.015685473
0001e0 2e 68 a8 be 3f 74 1d be 38 33 90 bc d6 b6 31 be
       -0.32891983 -0.15376376 -0.017602548 -0.17354903
0001f0 e1 0b 0f be dd ab 93 3d 42 dc 02 be 65 79 83 be
       -0.13969375 0.07210515 -0.12779334 -0.25678554
000200 38 f9 4a 3d e8 3e bb be 49 3c cf be c0 4a 92 3d
       0.04955408 -0.3657143 -0.4047568 0.07143164
000210 18 b4 ae be b9 7a 5c be 46 a8 7c bd 7d f4 ac 3c
       -0.34121776 -0.2153119 -0.061683916 0.021112675
000220 44 79 89 be 1e d2 4c bd d9 fa e0 be 6d c8 bb be
       -0.2685033 -0.05000507 -0.43941382 -0.3667635
000230 63 80 d1 bd 74 84 53 3d 13 b1 72 be de cc 13 bd
       -0.10229566 0.05163999 -0.23700361 -0.03608405
000240 b2 aa 5f be d8 83 f7 3d 59 6f a7 3c 38 86 fe bd
       -0.21842459 0.12085694 0.020438837 -0.12427944
000250 ae 29 2b 3f a7 15 ee bd ae 61 02 3d af 68 0f be
       0.66860473 -0.116252236 0.031831436 -0.14004777
000260 41 0e fc 3b 89 74 38 3e 6e bd 81 3e 4e 03 cd bc
       0.007692129 0.18013205 0.25339836 -0.02502599
000270 db 5f 27 3e 8f 9d 03 3e 4a bc af bc 3c 4e 83 3d
       0.1634516 0.12853073 -0.021452088 0.064114064
000280 6c 18 75 3b af 1d f8 bc 6e 55 df 3d 60 93 13 bf
       0.003739859 -0.030287592 0.10904966 -0.5764675
000290 d3 3e bd bd 81 8e f4 be 1e aa 0a bf ca f0 06 bd
       -0.092404984 -0.47764972 -0.5416583 -0.032944478
0002a0 2f d1 c0 be 63 ff 2a 3d 14 bd 1f 3d ae 1d 96 be
       -0.37659594 0.041747462 0.03899868 -0.2931952
0002b0 f9 70 7b bc 41 7e b0 bc 35 b2 bd be 7b 33 57 3e
       -0.015346759 -0.021544578 -0.37050024 0.21015732
0002c0 b0 ef 09 bd 50 c1 fe be c3 34 81 3e 3d 26 9c bc
       -0.03367585 -0.4975686 0.25235566 -0.019061202
0002d0 e4 eb bc bd e5 dc c8 3e 1d 75 dd 3c bb 48 02 be
       -0.0922468 0.3923103 0.027033383 -0.12723057
0002e0 5a 1b dd 3e e0 07 80 3d 00 14 8e 3c e1 40 3c 3e
       0.4318493 0.06251502 0.017343521 0.18384124
0002f0 42 2d cc bd 48 75 da 3d 84 04 53 3e af de 34 3d
       -0.0996957 0.10666901 0.20607191 0.04415768
000300 83 26 1d 3e e5 ca 88 be 50 6e 43 bb a1 8b cf 3e
       0.15346722 -0.26717296 -0.002982039 0.40536216
000310 2f 23 c7 3d 4a 31 42 bc 62 a6 08 3f de 91 8e be
       0.097235076 -0.011852572 0.5337888 -0.27845663
000320 5b 10 f6 39 24 e1 c8 3e 23 f0 86 be 7c 4b 8a bd
       0.00046932962 0.3923427 -0.26355085 -0.06752679
000330 24 3a 03 3f 99 4b 9a bd 1e 6f a0 3d 3f 0f ae 3e
       0.5126059 -0.0753395 0.07833694 0.33996007
000340 7d d9 53 be 0e 72 3e be 80 30 ca be 2d e7 cf 3d
       -0.20688434 -0.18598196 -0.39490128 0.10151515
000350 c5 c0 39 3d 10 4a 30 bf 42 1c 31 3e 95 0d a4 bc
       0.045349855 -0.6886301 0.17295936 -0.020026008
000360 96 e2 0d bf 6b c4 90 3d f8 17 7b bc 00 47 3a bf
       -0.5542387 0.07068714 -0.015325539 -0.7276459
000370 65 60 1e bf 24 35 be 3c 0d 2d 18 bf 82 dd 87 be
       -0.61865836 0.023218699 -0.5944374 -0.26536185
000380 9c 10 7b 3c
       0.015323784

fc_in.bias f4 [15]
000000 b0 d1 dd 3e 82 8b 03 3f 33 fa 0c 3f 8d e2 ca be
       0.4332404 0.5138475 0.55069274 -0.3962597
000010 4a 2b aa 3f a4 f7 91 3d 5a 1b fe bd 17 c7 c5 3e
       1.3294461 0.07127312 -0.12407561 0.38628456
000020 6c 01 c6 3e 19 81 3e bf 13 b1 18 3f 09 2a 0e bf
       0.3867296 -0.7441574 0.59645194 -0.5553289
000030 31 0c 93 be f3 b6 10 bf 9b 2d 58 3f
       -0.2872024 -0.5652916 0.8444459

fc2.weight f4 [15, 15]
000000 cf a7 30 bd d8 df 43 be d7 5b 84 3e 62 0c 45 3d
       -0.043128785 -0.19128358 0.25851318 0.048107512
000010 1f 0e a0 bf b5 81 71 be c0 47 8f bc 29 e3 a4 bd
       -1.250431 -0.23584636 -0.017490268 -0.0805114
000020 71 3f 51 be c9 71 62 3f 23 e6 b6 be 6a 9d 4f be
       -0.20434357 0.8845487 -0.35722455 -0.20274892
000030 c1 f1 17 3c 27 7b 39 3d 32 66 4c 3e b7 61 cf be
       0.009273947 0.045283463 0.1996086 -0.40504238
000040 80 24 72 3d d5 ae 2c be c2 23 2a 3f 81 ad 5b be
       0.05911684 -0.16863568 0.6646081 -0.21452905
000050 07 8f a1 be 00 07 cb be 03 e1 35 bf 9f 71 bc be
       -0.31554434 -0.39653778 -0.71046466 -0.36805436
000060 6f 96 74 3e d9 2a b0 be 3c 3d e4 be 85 a8 4d 3d
       0.23885511 -0.3440769 -0.44577968 0.05020954
000070 a1 96 52 3f 3a d9 c6 bf 5c c0 b1 39 d0 49 98 3e
       0.8226109 -1.5535042 0.0003390339 0.29743814
000080 68 ba 0b bf c0 08 16 3e 36 84 0a bf a5 43 00 be
       -0.5458131 0.14651775 -0.5410799 -0.12525804
000090 d9 d1 b2 3e 7b 34 49 3e 4e e3 b6 bb 58 fa 2d 3e
       0.34925726 0.19648926 -0.005581296 0.1699003
0000a0 0d 3a 06 3e 20 50 6e be fb f1 a2 be a1 ba a6 3e
       0.13108082 -0.23272753 -0.3182524 0.32564262
0000b0 67 75 01 3f 05 45 03 be 5b 71 c7 3e 98 20 01 3f
       0.50569767 -0.12819298 0.3895367 0.5044036
0000c0 fc 73 01 3e 2e 01 fd 3e a5 89 4a be 07 05 e9 be
       0.12641901 0.49414963 -0.1977907 -0.45511648
0000d0 e8 d5 8b 3e 90 2d 9a bd 5c fb 34 3d 02 70 ff ba
       0.27311635 -0.075282216 0.044185027 -0.0019488337
0000e0 67 54 25 bf c8 69 9f 3d db d2 54 3e e1 f2 df 3c
       -0.6458191 0.07783848 0.2078356 0.027337493
0000f0 02 b1 2e be 2b 58 c1 3d 4e 60 0f 3d 3e bf 21 be
       -0.1705971 0.09440645 0.035003953 -0.1579561
000100 b1 79 86 bf 30 85 12 3e b0 86 3f 3c 23 40 12 3e
       -1.0505887 0.1430862 0.011689827 0.14282279
000110 ae 25 c2 be c7 ab 49 3f 2d e9 0c bf d9 9a 08 be
       -0.37919372 0.78777736 -0.550433 -0.1334032
000120 29 9a 47 be 3b 8c 87 3e 69 90 33 3e 55 3f c4 3d
       -0.19492401 0.26474175 0.17535557 0.09582392
000130 e2 b3 d8 bd 5f 07 0c bf c7 49 66 be b2 30 10 bf
       -0.10581185 -0.5469875 -0.22489081 -0.56324303
000140 e9 09 24 3e a0 33 a6 3e d7 fc f2 bd 2d f0 ad 3d
       0.16019405 0.32461262 -0.118646316 0.084930755
000150 88 89 ac 3d 03 6c 8c 3e 1d e4 0a 3f 19 39 f0 3d
       0.084246695 0.27426156 0.54254323 0.117296405
000160 55 70 56 be 50 a7 e4 3d 92 93 a1 3e 8d 3c 1c 3c
       -0.20941289 0.11164725 0.315579 0.009535921
000170 16 b0 9c ba 9b 4f 32 3d e3 c1 bb 3e a5 93 bf 3d
       -0.0011954333 0.04353295 0.3667136 0.09354333
000180 a7 92 21 3f ab 66 01 be 50 2c 0a 3e 16 4e 45 3d
       0.631144 -0.12636821 0.13493466 0.04817017
000190 cc c7 93 3e e3 89 9c 3e c2 05 bf bc 3d f1 83 be
       0.2886337 0.3057395 -0.023318175 -0.25769988
0001a0 c8 6f cd be ae 49 a3 3c 68 9b dc 3e fd f1 61 be
       -0.40124345 0.019932594 0.43087316 -0.22064967
0001b0 1a ba c3 3a 22 c7 0d be 45 b9 82 bd 9a 83 4a bd
       0.0014932782 -0.13845494 -0.063829936 -0.04944191
0001c0 bb af 80 3e 2a 49 a8 3d e1 c2 77 3e 59 fe 66 3e
       0.25134072 0.0821708 0.24195434 0.22557963
0001d0 ab cb 05 bf c6 a0 c8 be 9e 08 e2 bc 48 0a 84 3e
       -0.522639 -0.3918516 -0.027592 0.25789094
0001e0 88 03 16 be 9c 56 d8 be eb f9 af be 3b 71 99 3e
       -0.14649785 -0.42253578 -0.3437036 0.299692
0001f0 16 81 1c bf d3 a9 e5 3e f6 3c 5c 3f 43 d2 29 bd
       -0.6113447 0.44856128 0.8603052 -0.041460287
000200 c1 90 01 be 4f b1 80 3d f4 d8 17 3f 7c cd 46 be
       -0.12652875 0.06283819 0.5931542 -0.19414324
000210 c8 c3 c8 3d bc d5 2a 3c b0 60 29 bd d5 07 bd bc
       0.09802967 0.010426935 -0.041351974 -0.023075024
000220 2f 91 1e 3f ad a8 d4 bd d6 ba 8f be 55 50 3b be
       0.6194028 -0.10383735 -0.28072232 -0.18292363
000230 87 ce b8 be e1 51 0c bf ab 85 86 3d 07 8e 84 be
       -0.36095068 -0.5481244 0.06568464 -0.25889608
000240 79 2d ed 3e ff ad 30 be cb 5c 02 bf 1e 80 83 bd
       0.46323755 -0.17253874 -0.5092284 -0.06420921
000250 c4 ae 57 3e d5 e5 5d 3d b7 31 13 be f6 6f 20 bd
       0.21062762 0.054174263 -0.14374433 -0.039169274
000260 7c fa 1c 3e 0a f2 ba be da 48 31 bf d3 59 05 bf
       0.15329927 -0.36512786 -0.6925179 -0.52090186
000270 43 85 78 3c 7f 11 d6 be 32 98 6e 3e f1 1a 43 3f
       0.015168491 -0.41810223 0.23300245 0.76212984
000280 48 ec 09 bf b3 9a 67 3f a1 b8 d4 3d 7e 46 00 bf
       -0.5387616 0.9047043 0.10386778 -0.5010756
000290 01 21 2d 3e 54 3f 63 bd 67 38 1a bf 34 5f 8e 3e
       0.16907121 -0.055480316 -0.60242313 0.2780701
0002a0 52 a7 36 3c 6e d8 c8 3e 16 ff 1d bd 06 13 a0 3e
       0.011148291 0.39227623 -0.038573347 0.31264514
0002b0 5c e3 32 3e 47 b5 df 39 4a 86 a7 be 1c 6e 82 3e
       0.17469543 0.00042668937 -0.32719642 0.25474632
0002c0 c7 a7 1f 3f 44 2f 4a 3e a3 46 d2 be a0 fe 95 be
       0.6236538 0.19744593 -0.41069517 -0.29295826
0002d0 17 cb d3 3d 70 d2 74 bd 14 eb 7c 3d 33 65 16 bf
       0.10341471 -0.059771 0.061747625 -0.5874817
0002e0 20 0a c6 bd fe f4 7f 3e 9d a9 77 3d 56 7d 0a 3f
       -0.096699 0.24995801 0.06046449 0.540975
0002f0 c1 7d d1 3e 8b d6 89 be 28 39 45 3e a0 fd 46 3e
       0.40916255 -0.26921496 0.19260085 0.19432688
000300 0b ba 94 3e 67 f8 38 bf d6 80 cb 3f e8 c0 db 3e
       0.2904819 -0.7225403 1.5898693 0.42920613
000310 37 70 a6 3e 33 f1 71 be 05 6d b9 be dc af 2b 3e
       0.32507488 -0.23627166 -0.36215988 0.16766304
000320 e6 1f a2 3e 62 fd 50 3e ba 2d 91 be a9 9e 84 3e
       0.31664962 0.20409158 -0.283552 0.25902298
000330 fc dc d2 be c2 ee 12 3f 44 b1 c2 bd e7 54 57 be
       -0.41184223 0.57395566 -0.09506467 -0.21028481
000340 07 ea bb be e9 d0 32 3f 43 37 39 be 20 b7 2b be
       -0.36701986 0.6985002 -0.18087487 -0.16769075
000350 8c f1 de 3e 24 fb b0 bd e3 0f d0 3e fb 97 53 3d
       0.4354366 -0.08641651 0.4063712 0.05165861
000360 30 76 dc bd e7 55 25 be 5b 6b 0b bd de 17 c5 bd
       -0.1076473 -0.1614605 -0.03403793 -0.09623693
000370 b6 34 03 3e e4 48 5b 3e ef 17 9d 3e 0f f9 f6 be
       0.12813076 0.21414524 0.30682322 -0.48236892
000380 50 86 90 be
       -0.28227472

fc2.bias f4 [15]
000000 d5 fb 1a bf 7e 53 b6 be 83 1a 4b be 62 df 35 3f
       -0.60540515 -0.35610574 -0.19834332 0.7104398
000010 95 00 f0 be 54 dc 20 bf d4 bc ba 3e 75 e4 22 3e
       -0.46875444 -0.62836194 0.3647219 0.15907462
000020 15 e0 ab bb a2 d4 03 3e c1 a9 28 3b ca 45 33 be
       -0.0052452185 0.12874082 0.0025735947 -0.17507091
000030 d2 e3 16 3f 99 87 d3 3e a8 69 b1 bc
       0.58941376 0.4131439 -0.021656826

fc_out.weight f4 [10, 15]
000000 7e 65 16 3e 64 ff cd bc 9e c6 14 be 75 4e e5 3d
       0.14687154 -0.025146194 -0.14528891 0.11196605
000010 82 dd f0 bb 62 3e 34 be 78 b0 44 be e6 c0 eb bd
       -0.0073506245 -0.17601922 -0.19207942 -0.11511402
000020 64 0c 17 be 62 a5 94 3d c7 97 a7 3d 6b 26 95 bd
       -0.1475082 0.07258107 0.08183246 -0.07282718
000030 0c 67 a2 3c 65 20 e1 bd b8 78 92 3d 4f 03 7c bd
       0.019824527 -0.10992507 0.071519315 -0.061526593
000040 29 aa af bd e8 e2 ce 3c ce a6 ef 3c a7 dc 99 3d
       -0.08577377 0.025254682 0.029254343 0.07512789
000050 45 e4 5c 3e 3c 29 d8 bd 14 46 13 bd e5 8c 61 be
       0.21571453 -0.1055474 -0.035955504 -0.22026403
000060 66 5a ac 3e 03 10 62 be 6d 4e ab be 3e 53 82 3e
       0.3366272 -0.2207642 -0.33458272 0.25454134
000070 21 60 ac bc a9 37 03 be 45 d5 99 3e f0 07 be 3b
       -0.021041932 -0.12814201 0.30045524 0.005799286
000080 a2 72 83 be c5 74 9a 3e bb e6 52 bb c7 32 a5 be
       -0.25673395 0.30167213 -0.0032180983 -0.32265303
000090 fc c7 b4 be 32 a2 59 be 96 04 a7 be 87 d0 1f 3e
       -0.35308826 -0.21253279 -0.32620686 0.1560689
0000a0 1b a1 1c 3e f0 7d 2f be cb 1d 0a 3e c6 28 6c be
       0.15295832 -0.17137885 0.13487928 -0.23062429
0000b0 b8 03 ff 3d 76 fb 01 3d 8e 7a d5 be 0f 3f 6e 3e
       0.12451881 0.031733952 -0.41695064 0.23266242
0000c0 68 21 92 bd 4f 38 a1 3e 7c 3c f8 bd b0 86 f1 bd
       -0.07135278 0.31488273 -0.121209115 -0.11793268
0000d0 4b 3d 0e 3e a8 74 0c be d5 0b eb 3e b8 14 c0 be
       0.13890569 -0.13716376 0.45907465 -0.37515807
0000e0 8a 5e b1 be 14 00 ac 3e 7e e5 19 3e c3 aa be be
       -0.3464244 0.3359381 0.1502895 -0.37239656
0000f0 8b 80 b9 3e 6c 1f ac bd ca 34 94 be ca a2 df 3e
       0.36230883 -0.08404431 -0.28946525 0.43678886
000100 5e 60 11 3e 94 b9 0b bf 30 d3 02 bf 61 c6 b6 be
       0.14196917 -0.54580045 -0.51103497 -0.35698226
000110 46 52 f1 be 71 f1 9f 3e d7 21 4b 3e c7 9d 7f be
       -0.47133082 0.31238893 0.19837128 -0.24962531
000120 c5 d9 31 3e b0 b8 9c be d1 a0 33 3e 47 b4 a2 3e
       0.17368229 -0.30609655 0.17541815 0.31778166
000130 69 c0 41 bf e5 0b e5 3e de 63 12 3e fe 36 82 3e
       -0.7568422 0.44735637 0.14295909 0.2543258
000140 53 4d 40 be 27 28 0b be 7a 78 af 3e 79 d3 d3 3d
       -0.18779497 -0.13589536 0.34271604 0.103430696
000150 42 d1 1a 3f 84 70 e3 be 20 3e c1 be 7c b7 d2 3e
       0.6047555 -0.4442178 -0.3774271 0.41155612
000160 9f a2 b0 3e d4 87 06 bf fc fc 07 3f 5a fd 6b be
       0.3449907 -0.5255101 0.531204 -0.23045865
000170 0b b5 c1 be 1d 05 3b 3f af 41 5d 3e b1 ca 19 bf
       -0.37833437 0.7305468 0.21607088 -0.6007491
000180 25 e4 35 bf bf 3d c1 be 0c d9 1f bf 2a 15 b8 3e
       -0.71051246 -0.3774242 -0.6244056 0.35953647
000190 71 c0 54 3e b6 40 c4 be 34 7a 4c 3e 61 d8 ca be
       0.20776536 -0.3833062 0.19968492 -0.3961821
0001a0 0d ac 3d 3e c1 83 a1 3e 73 ae 7c bf e0 70 14 3f
       0.18522663 0.31545833 -0.9870369 0.57984734
0001b0 74 c2 88 3e d2 73 13 3f ba 87 24 be 1f 00 be be
       0.26710856 0.575986 -0.160674 -0.37109467
0001c0 b0 d1 fb 3e 7e ab 85 3e 74 8e d6 3e 18 b6 29 bf
       0.49183416 0.261074 0.41905558 -0.6629348
0001d0 6d 4e 19 bf b4 00 f0 3e 1e d6 04 3f b6 a2 10 bf
       -0.59885293 0.46875536 0.51889217 -0.5649828
0001e0 bd 06 28 3f 15 43 2c be f4 9b e5 be 3f 18 51 3f
       0.6563528 -0.16822465 -0.44845545 0.8167762
0001f0 fd 49 cd 3e 49 6f 76 bf fd c1 5a bf 6c f7 dd be
       0.4009551 -0.9626356 -0.8545225 -0.4335283
000200 bd 19 37 bf 69 d2 03 3f dd 6a 71 3e cd 0d e1 be
       -0.7152365 0.51492935 0.23575921 -0.43955842
000210 e9 00 fc 3e e9 1f d2 be 20 f7 c3 3d 41 c7 30 3f
       0.49219444 -0.4103997 0.0956862 0.6905404
000220 ca 1c 6f bf 4a 8f 2d 3f ea 94 00 3f bb 90 0e 3f
       -0.93403304 0.67796767 0.50227225 0.5568959
000230 8f d4 91 be b8 91 4c be 97 44 2a 3f 41 f3 f1 3e
       -0.28482482 -0.19977462 0.6651091 0.472559
000240 ff 24 ba 3e 3e 90 31 bf 8d e6 31 bf c2 5b 4e 3f
       0.3635635 -0.6936072 -0.6949242 0.8060876
000250 fe 66 3a 3f 8d d9 1c bf
       0.72813404 -0.61269456

fc_out.bias f4 [10]
000000 ba 97 f8 bd 9a fd 93 bd d9 98 d4 bd 24 53 c9 bd
       -0.121383145 -0.07226105 -0.10380716 -0.09830311
000010 39 22 82 bd e9 8e 3e be 2b 16 11 bd 85 91 91 bd
       -0.06354184 -0.18609203 -0.03542153 -0.07107834
000020 13 e9 9a bc e2 95 80 be
       -0.018909967 -0.25114352
