inverted_pendulum/trained_models/pend_curr_lr_0.001_wd_0.0001_gam1_0.75_gam2_0.5_hor_3_epo_50.pt (torch, 4567 bytes, 6 tensors)

fc_in.weight f4 [15, 15]
000000 ed b5 15 be 6f dc b3 bd 5a 7d a4 3d 6d 75 18 bd
       -0.1462018 -0.08782279 0.080317214 -0.03722136
000010 dd 74 29 be e0 f4 d7 ba a5 38 9c bc 24 b2 90 3e
       -0.16548486 -0.0016476177 -0.019069979 0.2826091
000020 fb 34 94 bd 68 c3 10 3e a4 7e 43 3e 52 1b 9c bb
       -0.07236668 0.14137042 0.19091278 -0.004763999
000030 e8 94 35 3d c3 73 ee be 17 34 8e 3d 2d 78 0c be
       0.04433146 -0.46572694 0.06943529 -0.13717718
000040 80 5e 4b be 8b b5 76 bd 8c dd 30 be 3d ae af bd
       -0.19860268 -0.060231727 -0.17272013 -0.08578155
000050 e0 a2 24 3d b0 e0 bb be 3d 21 a0 be 3c 36 46 bb
       0.040194392 -0.3669486 -0.3127536 -0.0030244729
000060 93 76 e7 be da 44 9c bd 60 63 29 bb 76 3a 3a be
       -0.45207652 -0.0763032 -0.0025846586 -0.18186364
000070 d7 da 20 bf 06 4a d8 3c e5 d9 db bd f2 d7 6e be
       -0.62833923 0.026402485 -0.107349195 -0.23324564
000080 b1 e9 af 3c 34 0b 6f be 9e d1 a0 be de 7f c1 3d
       0.021473737 -0.23344117 -0.31409925 0.09448217
000090 0d b1 ea 3c c1 12 2d be c6 23 4b 3c f1 ca f2 bd
       0.028648878 -0.16901685 0.012398666 -0.11855114
0000a0 1b 3c 3c 3e ec 70 29 bd 30 2c a0 bd 82 99 a1 3e
       0.18382303 -0.041367456 -0.07820928 0.3156243
0000b0 ce 54 b8 bd a1 8f aa bd 84 58 84 be 53 1c 81 3d
       -0.0900055 -0.08328176 -0.25848782 0.063042305
0000c0 2b ab 7f be ac f7 ee bc 45 0b af bd 9d 66 c9 bd
       -0.24967639 -0.029170834 -0.08547071 -0.09834025
0000d0 b8 45 e4 3c af ea cf 3c 18 8d 2f be 00 3b 88 bd
       0.027865276 0.02538046 -0.17143667 -0.06651878
0000e0 77 6c 86 bc 8d f2 86 be 00 a2 df 3e 46 9f 1c 3e
       -0.016409142 -0.26356927 0.43678284 0.15295133
0000f0 a8 bc 0d be 0c 78 d9 bc 5f 7e ba 3d 7e 99 7c 3e
       -0.13841498 -0.0265465 0.091061346 0.24667928
000100 a7 38 d6 3d d6 cf 91 bd 0f 6a 87 3e 7c 72 e0 3d
       0.10460024 -0.0711972 0.26448104 0.10959336
000110 e4 e6 13 3d c3 fb 60 be 9b c9 10 bd 94 2a d5 bc
       0.036108866 -0.2197104 -0.035348516 -0.02602128
000120 40 8d e0 3b 42 9f 81 3f e9 b0 e3 3d c1 76 bf bd
       0.006852776 1.0126727 0.11117727 -0.093488224
000130 9c 52 d7 be 2d 33 c2 bd c2 7e 0e 3c c7 8d e7 3d
       -0.42055213 -0.09482417 0.008697214 0.11306339
000140 0f 91 91 3d 4d ed f7 bd 73 23 7a be b3 62 66 bc
       0.07107746 -0.121058084 -0.24427585 -0.014061618
000150 80 55 9f be 98 0e cc bc 5a 7d 7f bc 3f 07 0f be
       -0.3111992 -0.024909303 -0.015593851 -0.13967608
000160 3f 3a e7 3e 57 9c b6 bd 4a 8c 61 3e b8 54 52 3e
       0.45161626 -0.08916538 0.22026172 0.2054013
000170 48 bc 12 bd 3a 7f c4 3d aa f5 68 3e 6d d4 d6 3d
       -0.03582409 0.09594579 0.22749963 0.10489736
000180 be 7e 95 3e 36 22 91 bd ce 29 1a be c1 95 82 3e
       0.2919826 -0.07086603 -0.1505501 0.25504878
000190 23 d5 98 bd 4f 67 41 3e d2 cc 65 3e b5 0a 07 bf
       -0.074625276 0.18887065 0.22441414 -0.5275071
0001a0 1c 9a 00 be 86 2b 42 3f 8e 29 6b be fe ce fd bc
       -0.12558788 0.7584766 -0.2296507 -0.03098249
0001b0 71 b4 43 3f e8 9f 79 be 51 cf 6c 3d 5a 0d cd 3e
       0.76447207 -0.24377406 0.0578149 0.4004925
0001c0 42 29 80 3b de e3 e4 bd fc 61 35 3f 6e cf c7 3e
       0.0039111683 -0.11176275 0.7085264 0.39025444
0001d0 49 50 bc 3d c0 5e 48 3f 78 9b c3 3e 8a b2 8d 3b
       0.09195001 0.7826958 0.3820455 0.004324262
0001e0 1d c7 06 bf 84 ca 1a bf 44 7f 84 3d 0b dc ea be
       -0.5264757 -0.60465264 0.064695865 -0.45871004
0001f0 73 0a 83 bd 30 e5 b6 bc 75 50 11 bf 9e 23 17 be
       -0.063984774 -0.022326082 -0.5676339 -0.1475968
000200 39 c2 14 bc 1a 72 1a bf 81 c5 e9 3e 46 4a 59 3d
       -0.009079509 -0.60330355 0.45658496 0.05304935
000210 b6 b4 e6 be 76 f3 8c 3e 5d cb 80 bc 65 70 11 bd
       -0.45059747 0.27529496 -0.015721971 -0.03550758
000220 72 0c 35 be 19 ec 0f be 42 b3 9f be 37 3b 17 bd
       -0.17680529 -0.14054908 -0.3119145 -0.036921706
000230 e3 93 06 3d ca 60 a7 be 0b b8 96 bd 4e a7 d9 bc
       0.03285588 -0.32691032 -0.07359322 -0.026569035
000240 72 7e ad be 6b 58 03 3f 53 85 e2 3c 6f 4f c3 bd
       -0.33885533 0.5130679 0.027651465 -0.09536635
000250 fd 14 90 3c 2d c7 d7 3c a9 5d bf 3d 2a 40 50 3f
       0.017588133 0.026340092 0.09344036 0.81347907
000260 80 d0 01 3d ee 8a 66 bd 9a c6 e3 3e d9 19 33 bb
       0.03169298 -0.056284837 0.44487458 -0.0027328639
000270 44 1b 03 3e b0 4c 31 3e ff b2 12 bd 11 c7 4c be
       0.1280337 0.1731441 -0.035815235 -0.19997813
000280 68 7a e5 3d d3 be ec 3c 72 96 48 3d 3d c2 00 bf
       0.11204988 0.028899586 0.0489716 -0.50296384
000290 2e f9 97 3d 83 ab 49 bd 9d fb 9d 3d 04 58 6a 3d
       0.07420574 -0.049235832 0.07714007 0.057212844
0002a0 b1 37 d8 3c 9e 68 19 bc b1 b2 97 bb 1c 14 38 bd
       0.026393743 -0.009363322 -0.004629456 -0.044941053
0002b0 9d b7 d9 3e 70 0c a3 bd c1 0c 83 be b0 15 88 3e
       0.42522898 -0.07961357 -0.25595668 0.26579046
0002c0 3d e3 74 3d d3 d5 4f be e2 c4 8d 3e 5e 8e e7 bc
       0.059787024 -0.20296411 0.27689272 -0.028266128
0002d0 41 c4 8b be 1b e3 90 bd 28 3a 99 bc 46 e4 ec 3d
       -0.27298167 -0.07074567 -0.018704489 0.11566977
0002e0 7c bd 07 be 78 3b 9e 3d 37 01 11 be 09 6f d5 be
       -0.13255876 0.077261865 -0.1416062 -0.41686276
0002f0 5a b6 e5 bd ef 7f 90 bd e6 3e 34 be 02 6e 88 3d
       -0.112164214 -0.070556514 -0.17602119 0.06661607
000300 6f d7 0a 3e 1a bd 58 3f 8b cb a2 bd 21 15 b6 3e
       0.13558744 0.84663546 -0.07948979 0.35562995
000310 1f ce 19 3e 7c 17 13 3d d7 ed e7 3e 78 db f5 bd
       0.15020035 0.03591107 0.45298645 -0.12004751
000320 6e 89 3e bd 96 d6 0f 3f 3a 21 2e bd ab 01 dd 3d
       -0.046517782 0.5618681 -0.042512156 0.10791334
000330 3e c3 fb 3e ce b8 ee 3e 10 45 db bd dd 8f 12 3f
       0.49172395 0.4662537 -0.10706532 0.5725077
000340 4e 28 4d 3e 35 22 0b bd d5 ea 85 3e 11 1d 23 3d
       0.20034906 -0.03396817 0.26155725 0.03982264
000350 52 e4 87 3a ee de 7d 3e b4 2e 99 3c 63 96 2f 3d
       0.0010367727 0.24792072 0.018699028 0.04286803
000360 d7 6e c2 bd 06 6e 1f 3e 7c 90 6c 3d 22 5d 20 3e
       -0.09493797 0.15569314 0.05775498 0.15660527
000370 8b c6 3b bd 77 49 e6 bd 6d 57 43 be eb 4d 86 bc
       -0.045843642 -0.11244481 -0.19076319 -0.016394576
000380 a9 80 eb 3c
       0.028747873

fc_in.bias f4 [15]
000000 20 4b ae bb 27 3d f2 3e e5 f3 07 bf f7 3e 95 bf
       -0.005319014 0.4731228 -0.5310653 -1.165984
000010 e4 23 32 3e 32 dc 27 bf 53 93 cc be 4a 9d 63 bf
       0.17396504 -0.65570366 -0.3995615 -0.8891188
000020 39 09 54 bf a1 28 80 3e 80 cb 98 be 76 51 5c 3f
       -0.8282657 0.25030997 -0.29842758 0.860618
000030 ce 5a ac bd 53 f2 20 bf 04 f4 0c 3f
       -0.08415757 -0.6286976 0.5505984

fc2.weight f4 [15, 15]
000000 b3 3c c4 3c 97 a6 e2 be 05 9d 8a 3d ab af d2 3d
       0.023954725 -0.44267723 0.0676823 0.10287412
000010 b9 49 ff bd fb ff 2a 3e c5 d3 87 b9 37 51 2b be
       -0.12465233 0.16699211 -0.00025906987 -0.167302
000020 5a 74 0f bf b3 d1 78 be da 42 c2 bd 7e 3f 9b be
       -0.56036913 -0.24298744 -0.09485407 -0.30321878
000030 0a b8 84 be 89 7d a6 be 20 b5 21 be da 22 97 3e
       -0.2592166 -0.3251765 -0.1579175 0.29518777
000040 ac 98 88 3e 30 11 38 bf 02 9d ba bf f5 84 9a be
       0.2667898 -0.71901226 -1.4579165 -0.30179563
000050 42 30 41 bf f3 cd bd be 3f 36 8b 3e 13 a1 a3 3e
       -0.7546426 -0.3707119 0.27189824 0.31958827
000060 02 f6 a4 3e fa 00 20 bd 97 01 61 be 27 0e 22 bf
       0.3221894 -0.03906343 -0.21973263 -0.63302845
000070 49 19 97 bb 76 23 f4 3e a6 59 72 3e 48 83 26 3f
       -0.0046111685 0.47683305 0.2366701 0.6504407
000080 1f 72 4e 3e a2 a1 9f be 05 23 92 be ea 18 a2 bd
       0.20160721 -0.31178004 -0.28542343 -0.07914908
000090 07 8c e2 3d 35 c1 f1 3d 6b 55 92 be f6 f6 d4 bd
       0.11061864 0.118044294 -0.28580794 -0.103986666
0000a0 6a 11 18 bd 63 94 ce 3d d1 28 70 be 39 d4 5c be
       -0.037125982 0.10086896 -0.2345307 -0.21565332
0000b0 1c e9 ce bd f7 64 e5 3d a4 55 d1 3d df 6b 8c 3e
       -0.10103056 0.11200898 0.10221413 0.2742605
0000c0 d6 c6 c1 be 99 cb 63 3e 01 51 76 3d 9e da 07 bd
       -0.37847012 0.22245635 0.060135845 -0.033167474
0000d0 d5 25 05 be 30 6c 1f bf 8d 70 58 be 9f 95 5a be
       -0.13002713 -0.62274456 -0.21136685 -0.21346138
0000e0 80 0d 4e be d6 2f c1 be f7 9a 9c be d5 5f 57 be
       -0.20122337 -0.37731808 -0.3058698 -0.21032651
0000f0 24 61 ad bd d5 8f 07 bd 04 db b9 3d 48 ed f7 be
       -0.08465794 -0.033096153 0.09074977 -0.4842322
000100 dd 65 05 be ca 69 04 be 84 ad a0 be bf 89 95 3e
       -0.13027139 -0.1293098 -0.31382382 0.29206654
000110 e1 19 c5 3e e0 14 21 3e e1 92 d4 3b 9d 00 eb 3d
       0.38496307 0.1573062 0.006487236 0.11474726
000120 68 92 36 3d fa 6c a0 3d 63 95 bf bd a9 49 54 3e
       0.044573218 0.07833286 -0.09354665 0.20731224
000130 b7 b8 ff 3d f9 e5 ab bb 8e 43 50 3d 19 69 10 bf
       0.124864034 -0.0052459207 0.050845675 -0.56410366
000140 20 8c 15 3d 02 bb df bb 50 2e 84 3e d9 f3 03 3f
       0.036510587 -0.006827713 0.25816584 0.51543957
000150 d5 74 37 3e 51 0d d4 3e 2a a8 54 3d 51 c5 15 bf
       0.17915662 0.4141641 0.051918186 -0.58504206
000160 1b 63 1a 3f 58 19 a6 be 07 73 2c 3e 61 a5 6b 3d
       0.6030747 -0.3244121 0.16840754 0.057530764
000170 4b 2b 4a be 2d 2e 2c bf c7 3a 9b 3d 5a 8e 91 be
       -0.19743077 -0.6725796 0.0757957 -0.28428918
000180 53 3c e0 3b a4 d8 c4 bc fb 92 fe 3e d7 c6 99 3e
       0.0068431287 -0.024029084 0.49721512 0.30034515
000190 54 2f 62 3e 3e 44 65 3e 16 ff 21 bf 60 48 eb 3e
       0.22088367 0.22389314 -0.63279855 0.45953655
0001a0 51 2b 62 3e e9 08 08 bd 17 77 86 bd b9 0e 91 bd
       0.22086836 -0.033211622 -0.06565683 -0.07082886
0001b0 78 2d 7b 3e f7 04 8f 3e b8 6b c5 3e 70 21 5c 3e
       0.24529064 0.27933475 0.38558745 0.2149713
0001c0 d7 6b d7 be ac 0e 2a bf 0a 3a b0 be ab 67 e3 be
       -0.42074463 -0.6642864 -0.3441928 -0.4441503
0001d0 81 fe 54 bd 83 93 23 3e 91 5a ba be 31 8a 35 bd
       -0.052000526 0.1597424 -0.36397222 -0.044321243
0001e0 8b 25 b1 3e 16 0d 56 3e 98 4d b8 3e 5b 89 1f 3f
       0.34598956 0.2090343 0.359967 0.6231896
0001f0 eb 17 d4 be 97 83 c2 3e b3 4b fe 3e ca 69 4e be
       -0.41424498 0.3799102 0.4966713 -0.20157543
000200 6e 1c fa be a0 e9 4e bf 09 fd 76 3e b8 58 21 bf
       -0.48849815 -0.80825233 0.24119963 -0.63026
000210 2c 2f a5 bd df cd 0c bf 47 bc 0d bf 2d 40 d4 bd
       -0.08065638 -0.55001634 -0.55365413 -0.10363803
000220 63 73 73 3e 9a 8f f2 bd 80 02 8a be 10 c9 bf be
       0.23774485 -0.11843796 -0.26955032 -0.37458086
000230 c3 a6 1e be 74 bf 07 bd ca df 7a 3e 1d f5 05 3f
       -0.15493302 -0.03314157 0.24499431 0.5232714
000240 ac 60 e8 3e f0 fc 11 3f e4 42 fb bc bf 82 5e be
       0.45386255 0.57026577 -0.030671544 -0.21729563
000250 01 d3 91 3e 3f 31 94 3d d9 10 b0 be ae 93 d4 bc
       0.28481296 0.072359554 -0.34387854 -0.025949325
000260 26 e7 08 be 45 91 78 3e c1 16 62 3e df c6 8d be
       -0.13369426 0.24274166 0.22078992 -0.2769079
000270 85 88 56 3e e2 55 8a be f0 32 db be 80 b2 8b be
       0.20950516 -0.27018648 -0.428123 -0.27284622
000280 a2 6c 6e be 95 58 55 3e 0e d0 88 3e 76 58 86 be
       -0.23283628 0.20834573 0.26721233 -0.26239365
000290 01 1f ef 3e a3 69 f9 be 26 23 43 be c1 f3 98 be
       0.46703342 -0.48713407 -0.19056377 -0.2987347
0002a0 59 15 d4 3e 2f a8 33 3d ba 91 54 3e e6 e6 90 be
       0.41422537 0.043861564 0.20758715 -0.28301162
0002b0 07 64 1a 3f 92 62 ac 3e cf 64 00 bc 87 df 45 3f
       0.6030888 0.33668953 -0.007836535 0.772942
0002c0 ea 3b a0 be c1 81 25 3f 58 ee b4 3e 94 30 76 3e
       -0.3129571 0.64651114 0.35338092 0.24041969
0002d0 ad 6a 01 3f 84 2e a6 be c0 8e b6 3e bf f6 e8 3d
       0.505534 -0.32457364 0.35655785 0.11375188
0002e0 d4 94 b9 be dc 42 da 3e e9 1e 84 3d 1d a8 a6 3d
       -0.3624636 0.42629135 0.06451208 0.08137534
0002f0 69 81 c5 3e b2 df 3f 3e 58 e7 7b bd c3 03 20 bf
       0.38575295 0.18737677 -0.061499923 -0.6250574
000300 21 ca 98 be 2e 2a 53 3e 3f e7 00 bf 4b 88 07 3f
       -0.29841712 0.20621559 -0.50352854 0.5294234
000310 c6 a4 d1 3d 2e 3d 06 3e e2 a2 92 3b 99 f1 db be
       0.10236506 0.13109276 0.0044749836 -0.42957762
000320 da b9 3c bd ed 30 82 be df 1d 7d 3c 5b 3e 1f 3f
       -0.04607568 -0.25427952 0.015449016 0.6220452
000330 f7 cb 9c 3e 62 86 37 3e 0d 2e f8 bd 34 5f 97 be
       0.30624363 0.17922357 -0.121181585 -0.29564822
000340 dc b8 5f 3e 89 41 ad be d6 e6 31 be b6 6d 3c be
       0.21847862 -0.33839062 -0.17373213 -0.18401226
000350 b3 1d 0a 3e 2c 0c 8c 3e 4d 49 3c 3d 64 73 0a be
       0.13487892 0.27353036 0.045968343 -0.1352058
000360 4b d1 07 3f c8 c6 8a 3f c4 cc 42 3c aa 84 2d bf
       0.5305373 1.0841913 0.01188964 -0.67780554
000370 43 f6 a8 bd 0c 01 92 be 72 91 3a 3e c4 2c 71 3f
       -0.08250096 -0.28516424 0.18219545 0.9420893
000380 88 d1 1a be
       -0.15118992

fc2.bias f4 [15]
000000 de ce 12 be a0 86 e1 3e b8 03 3b 3f 84 31 db 3e
       -0.14336726 0.44048023 0.7305255 0.42811215
000010 6a a0 60 3c db 78 ed 3d 43 a8 13 3e c8 f3 82 3e
       0.013710121 0.11595317 0.14419656 0.25576615
000020 31 e9 20 be e0 2a 1d be c8 9f 97 3e 5e 92 b8 be
       -0.15713955 -0.15348387 0.2961409 -0.3604917
000030 ca 8c 0b bf 12 e4 34 bf 80 e2 36 be
       -0.545117 -0.7066051 -0.1785984

fc_out.weight f4 [10, 15]
000000 73 0b 1c be 6f 98 35 bd eb b8 5e be eb 2a 5a be
       -0.15238743 -0.044334825 -0.21750228 -0.21305434
000010 3a 70 ca bc c7 b7 d4 bd 9c a6 5e bd 1e a4 dc bc
       -0.024711717 -0.10386615 -0.05435811 -0.026933726
000020 e6 ee e2 bd 4c 07 8f bd df ea ec 3d 03 5d f6 3d
       -0.110807225 -0.06983814 0.115682356 0.12029459
000030 67 11 05 be 18 1c f0 bd a4 24 0c bd 20 23 54 3d
       -0.1299492 -0.117241085 -0.03421463 0.05179131
000040 72 d9 1e 3e 1f da 28 3e 90 a9 0a 3e 1b 63 17 bd
       0.15512636 0.16489457 0.13541245 -0.03695975
000050 66 ea bc be 42 94 ae be 1f 05 e2 3e 60 fe d0 3d
       -0.36897582 -0.34097487 0.44144532 0.10204768
000060 ef 9d 8d be 8a 46 3c 3d 86 ae c6 3e 43 ab 63 be
       -0.27659556 0.04596571 0.38805026 -0.222333
000070 ce 9d b9 3e a8 5e 59 bd 91 fe 73 be 0a 11 03 be
       0.36253208 -0.053068787 -0.23827578 -0.12799469
000080 1b 7b d1 be b9 46 bd be be b9 3b bc 62 ed 86 be
       -0.40914235 -0.3696802 -0.011457859 -0.26352984
000090 83 08 0b be bb d7 87 bd 5c 31 47 be fa cd 2f be
       -0.13577466 -0.06632944 -0.19452423 -0.17168418
0000a0 6d a3 73 3e 60 fb 84 3e 9f 4d 9d be f3 aa 4a be
       0.2379281 0.25973034 -0.30723283 -0.19791774
0000b0 a4 8f b8 bd d8 1a a9 3e b1 21 a7 bc fe e6 ab 3e
       -0.09011772 0.33028293 -0.020401808 0.3357467
0000c0 e6 c4 92 3d b3 a8 27 be 28 25 df be 1b 4d e3 be
       0.07166462 -0.16372947 -0.43583035 -0.44394764
0000d0 97 2e 02 3f 6c 39 97 3e dc 0c fa be 5a 6e d4 bb
       0.5085234 0.29535997 -0.48837936 -0.0064828815
0000e0 7c 9b 33 3e 14 68 e6 bd c9 0f e2 3c 5d d0 a1 be
       0.17539781 -0.1125032 0.027595418 -0.3160428
0000f0 72 8d 9a be 1a 5e 81 be 18 fa 1e bf e3 80 f9 be
       -0.3018604 -0.25267106 -0.6210036 -0.48731145
000100 6a 44 5e bb 91 64 d4 be ce c8 6f be 58 6e c8 bd
       -0.003391529 -0.41482976 -0.23416445 -0.097866714
000110 6c 13 80 be 53 86 93 be 5c d0 b2 3e 8d fc af 3e
       -0.25014818 -0.2881342 0.3492459 0.34372368
000120 dd 91 f8 be 79 c3 a8 be ae 8b 37 be f2 27 18 3f
       -0.48548785 -0.32961634 -0.17924377 0.5943595
000130 ff 5f b2 be 8f d4 f7 3d e8 4b 82 3e 2b 15 92 be
       -0.34838864 0.12101089 0.25448537 -0.28531775
000140 74 d7 d8 be 2d 79 0c bf d2 d7 01 3f 1f f6 f4 3e
       -0.42351878 -0.548724 0.5071994 0.47844025
000150 2a ff 01 bf 25 62 9c 3e ec cd c0 be dc 62 15 ba
       -0.50779974 0.30543628 -0.37657106 -0.000569863
000160 8b 80 b7 bd b5 23 06 bf 8c 6e 98 be 13 3e f2 be
       -0.089600645 -0.52398235 -0.2977184 -0.47312984
000170 c3 65 2a bf cf 66 2e bf f5 cd a6 3d cc 43 19 bf
       -0.66561526 -0.68125623 0.08144752 -0.59869075
000180 fc bc 57 be b9 97 82 bd 8d e9 7c be 46 cf cc be
       -0.21068186 -0.06376595 -0.24698468 -0.40001887
000190 8a 74 04 3f 73 20 ed 3e c2 73 13 bf a0 2a 06 bf
       0.51740324 0.4631382 -0.5759851 -0.5240879
0001a0 a0 e3 a1 be 07 2b 2e 3f ba 1b 08 bf 26 7c 57 3e
       -0.31618977 0.68034405 -0.5316731 0.21043453
0001b0 d6 96 04 3e de d6 c2 be 85 ef f4 bd 09 b8 d6 be
       0.12948164 -0.38054556 -0.11959747 -0.41937283
0001c0 7e 88 61 3f 82 77 41 3f 97 b3 2f bf 2f 67 0b 3e
       0.88098896 0.7557298 -0.6863341 0.1361358
0001d0 31 ee 1a bf 77 c5 51 bd bd fe 04 bf 4a fc 49 bf
       -0.605197 -0.051213708 -0.519512 -0.7890059
0001e0 12 7c 9d be 97 61 21 bf 27 95 7a bf d2 58 2f bf
       -0.3075872 -0.63039535 -0.9788384 -0.68494904
0001f0 d6 14 de bd 67 5b 44 bf 4c 77 e7 be 57 aa 44 be
       -0.10843818 -0.7670197 -0.45208204 -0.19205604
000200 36 b6 a0 be 5f 9e fa be e2 c9 13 3f bb d0 c5 3e
       -0.31389016 -0.48948953 0.57729924 0.3863581
000210 1e f0 40 bf 6e 5b 39 bf 65 89 e7 be b8 02 44 3f
       -0.7536639 -0.72405136 -0.4522201 0.7656665
000220 72 a3 60 bf 73 84 a9 3e 09 d2 04 3f 4b ea 24 bf
       -0.877494 0.33108863 0.5188299 -0.6442
000230 54 5a 3f be 7b 31 a6 be 40 91 90 3f de 36 74 3f
       -0.18686801 -0.32459626 1.1294327 0.9539622
000240 64 f5 eb be 21 b1 dd 3e fc b6 2c bf ed 27 ba bc
       -0.46085656 0.432992 -0.6746671 -0.022724116
000250 8b 1b bf be 10 dc 75 bf
       -0.373257 -0.96038914

fc_out.bias f4 [10]
000000 4c 74 f5 bd 42 3e 00 bc b5 ec 82 bd c0 91 0a 3d
       -0.119850725 -0.007827343 -0.063928045 0.033830404
000010 ee 83 2f bc 10 4d a9 3d 5c 67 0d 3c 9c 35 3c bc
       -0.010712607 0.08266652 0.0086306 -0.011487391
000020 97 b0 f3 3d 8e ad 1e bd
       0.11898916 -0.038739733
