inverted_pendulum/trained_models/vae_lr0.001_wd_0.0001_bet_1_hor_10_epo_254517766290206988366.pt (torch, 11217 bytes, 18 tensors)

encoder.fc1.weight f4 [18, 22]
00000000: 1b77 a13e 9869 423f 1a24 133d ffe2 c33e
00000010: 6027 283d 5f48 e23e ebb4 013e 55ce d33e
00000020: f5d9 a0bb db7e 9a3e d5bf 3d3e 7ad9 c03e
00000030: 8c67 3e3e 0725 b53e 09c9 ad3e a170 a43e
00000040: 2864 e13d ae1c 803e 9fd0 aa3c ce65 813e
00000050: 48bf 5f3e 5861 82bd 6586 7ebd b002 2fbe
00000060: 55fd f6bd 31e1 b13e 6003 0fbe d3bd 9d3e
00000070: b80a 5ebd db16 bd3e 8c26 b8bd 61e0 fa3e
00000080: 1857 60be 35d8 e43e 9059 75be a20c a73e
00000090: 56e1 aebc a449 b53e 6487 55be f460 983e
000000a0: f1e3 69bd ebd2 333e eb87 6cbe 843e a63d
000000b0: 42e6 033e fea8 99be 151f 25be 670a d9be
000000c0: aaef 0ebe 33a5 3bbe eb5c 82bd 9673 b1be
000000d0: 1412 d3bd e668 b0be 5cca 333d 59a6 8dbe
000000e0: b932 19bd cf05 72be 0ba6 2ebc 7eda 07be
000000f0: b784 8cbe ad88 3bbe f0bf 85be f7d4 a3bd
00000100: e16d 20be 80b8 b4bd d82f 8fbd b939 103f
00000110: 25c7 7a3e c30e 873e 08a8 07bd 5f28 523d
00000120: 8eae 903e 3a4d 2bbe 60c4 2dbc 97a2 92bd
00000130: 545a 963e ab0c 9bbe 9b11 f33c a825 aebe
00000140: 07e5 4c3e 0e0a dcbe c28e 4b3e 1f04 4cbf
00000150: 2d83 433e 9083 27bf 4f28 dfbc b9cc 62bf
00000160: 2797 113e 5228 7bbf 199f c0bd a7e9 14bf
00000170: d964 ecbd 21b1 23be 7419 88bd e45f 313e
00000180: 991e 0dbe 0617 523e 1ac9 a43c 484e 723e
00000190: 91f5 4dbc 384b b93e 84e7 2f3e bb3c 463f
000001a0: b93a f83d df29 293f 848f 863e 7c3f 6e3f
000001b0: a5d2 d23d 4c91 6b3f 7e7a 103e bf16 7b3f
000001c0: 4061 9b3e 0784 f83e 4ef9 143e 2c19 c73e
000001d0: f77a 513e d594 7e3e 4df2 293e 1149 8b3d
000001e0: 8f16 693e 635c f1bd 489a ac3e 3c9d 3ebe
000001f0: af72 c73d 44cc adbe 30bb a53d 0c9e dabe
00000200: b0b1 c13d 3df2 28bf 78c6 683e 9f74 8bbf
00000210: b2f0 55be 1a8a 873e 2fa0 cbbe 8764 8e3d
00000220: a0bd 37be 1824 093e 8784 75be 7a10 4b3e
00000230: 10fb b3be de58 da3e 4b74 2ebe 70ea ac3e
00000240: b6a9 b3be 3715 ba3e e785 a1be 1fc1 423e
00000250: 493b 92be fb10 9b3e e5aa 0ebe 8d48 da3e
00000260: c6eb 21be cd22 f93e 7bf5 3c3d 9500 123f
00000270: 6a84 293d 0f87 4b3e 6d5a de3d 2e72 853d
00000280: 060b a93d 6e67 213e 819a 863e 2b0d b53c
00000290: a805 193e ca56 b93d 40cc a93e f411 013e
000002a0: 6bfb 143e 7123 c53d b118 033e 4a7a 28bd
000002b0: 0ff0 613e 8efd ee3d dc53 8f3e 6eb9 0bbe
000002c0: db13 4bbf ef4a fcbe 2645 42bf 7683 e9be
000002d0: 61ff 3bbf 6263 61be 40e7 24bf aa3a 1fbe
000002e0: 5c7c 05bf edfd 31bc 6e16 2cbf fa5f 2ebe
000002f0: 2db9 0abf 3b1b a13d ad8e b2be c213 b13c
00000300: 1e86 c8be e0fa 13be cdd0 d0be b9af 50bd
00000310: d6e0 b6be d6ec 65bd da52 c13e 9d59 273e
00000320: 36f2 ad3e 5d1d 603d ab11 e03e 60db bcbb
00000330: 201c bf3e bbec fabe 4488 6e3e 2f6a a1be
00000340: f00b ea3e 8f6b 08bf 2a06 b73e 2e9b a9be
00000350: 794c 513e 2114 f9be bcaa a93e 24ac f7be
00000360: c66a 823e b54a ffbe 34d7 df3e 6fac e8be
00000370: 3a6e a03d f967 ac3f f040 003e 9108 2e3f
00000380: 15a2 1c3e e04f 0c3f 811b 553e dd3a ea3e
00000390: a823 2a3e 027a 743e 3e0e 963e 5f12 253d
000003a0: d264 8f3e 976f f13d 8528 d43e 2fdc b73d
000003b0: faf4 b33e 2084 8abd e138 d73e 0983 7bbe
000003c0: 63f8 dd3e e458 f3be a47a e13e 3d9f 15bf
000003d0: 55c5 5c3e 87a6 25bf 36e1 8d3e ab22 3dbf
000003e0: c2cb 143e 345d 0dbf 7cc5 ef3e 7247 19bf
000003f0: f786 3c3e 542a 0dbf b3d7 a53e 41ab e6be
0.31536183 0.75942373 0.0359231 0.38259122 0.041053176 0.4419584 0.12666671 0.41368356
-0.004908795 0.30174908 0.1853021 0.3766592 0.18594187 0.35379812 0.3394244 0.3211718
0.110054314 0.2502188 0.020851431 0.25272983 0.21850312 -0.06366223 -0.062139887 -0.17090869
-0.12060038 0.3474212 -0.13966131 0.30808887 -0.05420944 0.369315 -0.08991727 0.48999313
-0.21908224 0.44696203 -0.23959947 0.32626826 -0.021347683 0.35407746 -0.20852429 0.2976147
-0.057102147 0.17560928 -0.23098724 0.08117393 0.12880805 -0.30011743 -0.16125138 -0.4239075
-0.13958612 -0.18324737 -0.06365379 -0.34658498 -0.103061825 -0.3445503 0.043894157 -0.27665976
-0.03740189 -0.23635028 -0.010659705 -0.13266942 -0.27445003 -0.18313856 -0.26123 -0.07999604
-0.15666915 -0.08824253 -0.06991547 0.5633808 0.2449003 0.2637845 -0.03311923 0.051308032
0.28258175 -0.16728678 -0.0106059015 -0.07159918 0.2936579 -0.30283102 0.02967148 -0.34013104
0.20009242 -0.4297642 0.19878677 -0.7969379 0.19093008 -0.65435123 -0.0272409 -0.8859363
0.14217816 -0.981084 -0.094053455 -0.58169025 -0.11542673 -0.15985538 -0.0664548 0.17321736
-0.13781203 0.20516595 0.020115424 0.23662674 -0.012570755 0.361902 0.1717816 0.7743642
0.121205755 0.66079515 0.2628137 0.9306562 0.102940835 0.9201858 0.14109227 0.9808158
0.30347633 0.4853823 0.14548227 0.38886392 0.20457064 0.24861462 0.16596337 0.06801046
0.22762512 -0.117851995 0.33711457 -0.18614668 0.09738671 -0.33944905 0.08092344 -0.42698705
0.09457719 -0.65994626 0.2273196 -1.0894965 -0.20892599 0.2647255 -0.39770648 0.06952768
-0.1794343 0.13392675 -0.23976336 0.19830504 -0.35152483 0.42645925 -0.1703655 0.33772612
-0.35090417 0.3634431 -0.31547472 0.19018982 -0.28560856 0.30286393 -0.13932379 0.42633477
-0.15812597 0.48659363 0.046132546 0.5703214 0.041386046 0.1987574 0.10857091 0.06515919
0.08254056 0.15762112 0.26289752 0.022101006 0.14943564 0.09049757 0.33163643 0.12604505
0.14549033 0.096259005 0.12802388 -0.04113225 0.22064231 0.116694555 0.27993667 -0.13644955
-0.7932717 -0.4927592 -0.7588676 -0.4560811 -0.7343655 -0.22010568 -0.6441536 -0.15549722
-0.5214288 -0.010863763 -0.67221725 -0.170288 -0.54188806 0.07866522 -0.34874478 0.021615867
-0.39164823 -0.1445117 -0.40784302 -0.050948832 -0.3571841 -0.056134067 0.37758523 0.16342779
0.33973855 0.054715503 0.4376348 -0.005763456 0.37326145 -0.49008736 0.23294169 -0.31526324
0.45712233 -0.5328912 0.3574689 -0.33126205 0.20439328 -0.4864817 0.33138072 -0.4837352
0.25472087 -0.49861684 0.43718874 -0.45444056 0.07833524 1.346923 0.12524772 0.6798182
0.15296204 0.5480938 0.20811273 0.45748034 0.16615164 0.23874667 0.2930774 0.040300723
0.28006607 0.11788862 0.41437164 0.089775436 0.3514784 -0.06763482 0.42035583 -0.24561705
0.43353567 -0.47528756 0.4403888 -0.58446103 0.21559651 -0.64707226 0.27710885 -0.73881024
0.14530852 -0.5522034 0.46830356 -0.5987464 0.1841086 -0.5514271 0.32391128 -0.4505253

encoder.fc1.bias f4 [18]
00000000: 5a13 0bc0 1bd9 28c0 f185 4e40 37b6 2b40
00000010: d066 a83f 4e72 0c40 2c1a 983d aed8 3c40
00000020: a13e 0e40 90fd 3fc0 d626 513e 0f96 7c3f
00000030: 4279 33c0 1df0 f3bf 96b1 4ac0 68fa 2140
00000040: 768c 96bf ac68 b6bf
-2.1730561 -2.638251 3.2269251 2.6829965 1.3156376 2.1944766 0.07426867 2.950725
2.2225726 -2.9998512 0.20424971 0.9866647 -2.804276 -1.9057652 -3.167089 2.5309086
-1.1761615 -1.4250693

encoder.fc2.weight f4 [10, 18]
00000000: 7c04 5f3f b256 df3b a7b4 ddbd 53cd 703f
00000010: 1bac 90be 7114 86be eaa2 a2bd 3560 92bd
00000020: 7387 993e 7af5 24be 9ef5 cb3e 3983 bfbe
00000030: e307 9e3e 9d7c 90be f749 1b3e 319e adbe
00000040: d8cf 77bf 8f11 433f 1772 363f bbac 1bbf
00000050: 3d48 24bf e3c5 5b3f 856b 1ebf 532b 77bd
00000060: 0461 d5be 81cb 41be 9164 3c3f 983a edbe
00000070: 65c5 c1bd 891c 6d3f c8ab 433f 945a d1be
00000080: 7c82 d7be eff7 1abf 356e 79be 4734 983d
00000090: 8856 41be 912f 063e ed98 473f 4ea9 e4bd
000000a0: 4820 c3be aa28 96bd 0dc6 5ebd f576 b9be
000000b0: cadd cb3e 4ac3 a5bd b72b 08bf 1553 2cbf
000000c0: f4b4 243e 915f a3be 58b6 063f f28b 063f
000000d0: 2e2c 273f 5fd1 26be 63ef e2be f2a1 dc3e
000000e0: cfe7 173f ebc6 9abf 9536 2d3d 32e4 f2be
000000f0: 8607 d43c 2c89 7fbf 9626 73bf 4660 383e
00000100: ca0a bcbe d59d 6ebd 62e2 17bf 30ee 903e
00000110: 6a36 9fbe dbd6 993e f399 b53e 4d16 b43e
00000120: 9acb 3bbd c16e a13e 8ad6 72bf 1889 81be
00000130: 67bc 5dbe 98a3 113e 4a5f 00be 2816 61bf
00000140: 7adc a0be 590c 0d3f 8963 5ebd 9c2e aebd
00000150: 9bf1 e53e 4588 073f 0811 323f 93b1 35bf
00000160: b171 30be c268 d03e d017 34bf e0fa cdbd
00000170: d059 203f 35f0 52bf c276 e53d 00db 06bf
00000180: 3846 36be 4a9d 29bf 7d6f 0ebf fe7f 923f
00000190: 8ab1 08bf 2c0d cdbc abcf bcbe dde1 d53e
000001a0: 5fec 1fbf 1698 083e 757d 383f 21bd bbbe
000001b0: b7be e63e b653 973e 9533 b7be f827 25bf
000001c0: 27ee 20be e84a 51bd 5e89 7b3e 2ec3 2f3c
000001d0: a68f 123d 9a49 913e b448 d73e e6ed fabe
000001e0: e291 fa3d 4dc2 b1be 6003 5e3f 4502 b7be
000001f0: c5ba a63e e7dc 9b3f 482f afbe e678 173f
00000200: ecc6 bc3d aea4 bfbe 48a0 1ebe 6001 113f
00000210: 1833 db3e 863a 073f dac7 6c3e 282b 7dbd
00000220: 3b25 3b3e 02df 0bbf 1902 193e 776b ccbb
00000230: 2b0c 9d3f 823c 053f d5d1 813f 350b 133f
00000240: f29d 5d3e 9646 81bd c8fb 71be 3dea 01bf
00000250: 75e3 983e 4914 49bf ed98 f03e a5e5 bcbf
00000260: bb72 7d3e 9964 80be 3aa7 83be 9468 fbbc
00000270: aaff c2bd 30ca a53e a3b2 453f 15e9 a6be
00000280: d597 493e f53d b5bd ab96 41be 7364 173e
00000290: ca0f 9abd 861b 953e 76bb 77bd 6717 af3e
000002a0: 034a f63d 39f7 d23e 1d0a 833f f218 aabf
000002b0: d098 aabd 1b2a bfbe 5c7a 10bd 7cfc 87bf
000002c0: c570 c53c 78cd 803e 4e88 653e 627f 9e3d
0.8711622 0.006815755 -0.10825472 0.940633 -0.28256306 -0.2618747 -0.0794123 -0.07147256
0.29986152 -0.16109267 0.3983583 -0.37404802 0.30865392 -0.28220072 0.15164934 -0.33909753
-0.9680152 0.7619867 0.7126784 -0.6081044 -0.64172727 0.85848826 -0.6188281 -0.06034405
-0.4167558 -0.18925287 0.7359095 -0.46333766 -0.09461478 0.92621666 0.7643399 -0.40889418
-0.4209174 -0.60534567 -0.24358447 0.07431846 -0.18880665 0.13104083 0.7796772 -0.11165105
-0.38110566 -0.07331975 -0.054388095 -0.3622357 0.3981765 -0.08093889 -0.53191704 -0.67314273
0.16084653 -0.3190885 0.52621984 0.5255729 0.6530179 -0.16290806 -0.44323263 0.43092304
0.59338087 -1.2091955 0.04228838 -0.47439724 0.025882494 -0.9981868 -0.9498075 0.18005475
-0.3672698 -0.05825599 -0.5932981 0.28306723 -0.31096202 0.30046734 0.35469016 0.35173264
-0.045848466 0.3152981 -0.9485861 -0.25299907 -0.21653901 0.14222562 -0.1253635 -0.8792443
-0.3141821 0.55096966 -0.054294143 -0.08504984 0.44910893 0.52942306 0.6955724 -0.7097408
-0.1723087 0.40704924 -0.70348835 -0.10057616 0.62637043 -0.82397777 0.11204292 -0.5267792
-0.17800224 -0.6625563 -0.5563887 1.144531 -0.53395903 -0.025030695 -0.36877188 0.41773883
-0.6247005 0.13339266 0.7206643 -0.3666773 0.4506738 0.29556054 -0.3578154 -0.6451411
-0.15715848 -0.051096827 0.2456412 0.010727687 0.035781525 0.28376466 0.42047656 -0.49009627
0.12234856 -0.34718552 0.867239 -0.3574392 0.3256437 1.2176789 -0.3421576 0.5916885
0.09217629 -0.37430328 -0.1549083 0.56642723 0.4281242 0.52823675 0.23123112 -0.061808735
0.18275921 -0.5463716 0.14942206 -0.0062383967 1.2269338 0.5204545 1.0142161 0.57438976
0.21642283 -0.06312291 -0.23631203 -0.50748044 0.29861036 -0.7854658 0.46991673 -1.4757582
0.24750797 -0.2507675 -0.2571352 -0.030689515 -0.0952142 0.3238082 0.77225703 -0.32599702
0.19686826 -0.08849708 -0.18905132 0.14784412 -0.07522543 0.2912256 -0.06048151 0.34197542
0.12025835 0.4120424 1.0237461 -1.3288863 -0.08329928 -0.3733681 -0.03527294 -1.0623927
0.024101624 0.2515676 0.22415277 0.0773914

encoder.fc2.bias f4 [10]
00000000: 5de6 11bf 1c35 41be ef8f d73e 1e3f ae3e
00000010: fa76 92bf e679 803e ea8d 3abe 819d d6bd
00000020: eebd 12be 2c16 843f
-0.5699213 -0.18867916 0.42102 0.3403253 -1.1442559 0.25093 -0.18218198 -0.1047926
-0.14330265 1.0319266

encoder.fc3.weight f4 [5, 10]
00000000: 337d 19be 03e7 6c3d 5347 a0be ac9c d3be
00000010: 319a df3e 564e 3fbe 624d b4be efb0 f2be
00000020: d617 15bf f62a febe d38d abbe 43ce d93e
00000030: b3db 013f b0a6 b2bd 8075 1bbe 7809 883e
00000040: 9f70 8dbe 4005 293d 6974 7d3f 7b00 493f
00000050: 616d 3dbd ed92 2bbe 7857 b93e cd03 af3e
00000060: 9fea 81bf 2c94 3e3f 7919 90be 9241 73be
00000070: cc7e f3be 4101 26be c100 263c 29f1 08bf
00000080: 1f6f e13e 1b27 b63e a7c3 853d 7498 f4bd
00000090: 42b6 c83e 02c9 ec3e b2d4 4b3f 2295 b0be
000000a0: 7300 b73e b343 9fbd ee37 af3d 5684 b5be
000000b0: 871e e1bd dbc2 50bf dc8e c13e 01d2 f03e
000000c0: 46a6 8bbe 9992 2e3f
-0.14989166 0.057837497 -0.31304416 -0.4133047 0.43672326 -0.18682227 -0.35215288 -0.47400615
-0.58239496 -0.49642152 -0.3350664 0.42540178 0.5072586 -0.08723199 -0.15181541 0.26569724
-0.27624986 0.041264772 0.9900575 0.7851636 -0.04624689 -0.16755266 0.36199546 0.34182587
-1.0149726 0.7444484 -0.28144434 -0.23755482 -0.47557676 -0.16211416 0.010132016 -0.5349298
0.4403009 0.3557671 0.06531458 -0.119431406 0.39201552 0.46247107 0.7962142 -0.3448878
0.3574253 -0.077765845 0.085555896 -0.35452527 -0.10992151 -0.81547326 0.37804306 0.4703522
-0.27275294 0.6819244

encoder.fc3.bias f4 [5]
00000000: d384 87bf 0b86 323e 30e1 373e 76b7 5e3b
00000010: 21de 793f
-1.058741 0.17433946 0.17956996 0.0033983863 0.97604567

encoder.fcout_mu.weight f4 [2, 5]
00000000: 7107 1dbf a305 0e3d dfa4 0ebf ffd3 ac3e
00000010: f544 d93e 356b 36be 6d7d 243f 456a b13e
00000020: e547 863e 8d5c 4dbf
-0.6133948 0.034673344 -0.55720323 0.3375549 0.42435423 -0.17814334 0.64253885 0.3465139
0.26226726 -0.80219346

encoder.fcout_mu.bias f4 [2]
00000000: 0cd2 ef3e 968b 7ebc
0.4683994 -0.01553621

encoder.fcout_sigma.weight f4 [2, 5]
00000000: 2c25 a83f c59c 623d a1ff 75bf de48 013e
00000010: 1ee9 35be bead 6b3e cbab 78bf 2835 6abe
00000020: a55b 803f 1b3f 8cbf
1.3136344 0.05532529 -0.96093184 0.12625453 -0.17764708 0.23015496 -0.97137135 -0.2287184
1.0027968 -1.0956758

encoder.fcout_sigma.bias f4 [2]
00000000: d362 0fc0 62dc 63bf
-2.2404068 -0.8900815

decoder.fcin.weight f4 [5, 2]
00000000: 0139 06bf e1b1 553f 8c4b ce3f 560b b4be
00000010: eeab aebe 6e18 f7be 2c6c 783f 0ecc 3dbe
00000020: 2228 923f 3ac3 e93e
-0.5243073 0.83474547 1.6116805 -0.351649 -0.34115547 -0.48260826 0.9704006 -0.18534872
1.1418498 0.4565676

decoder.fcin.bias f4 [5]
00000000: 0daf f03e a019 663f cf49 983e ee27 7abf
00000010: e175 f4be
0.47008553 0.8988285 0.2974381 -0.9771718 -0.47746184

decoder.fc1.weight f4 [10, 5]
00000000: 67a4 5a3e d89b 873d 8655 173d 49d7 7c3e
00000010: 13bf b3bd 3d6d a0bd 616e 3ebc d090 dbbd
00000020: 6890 0fbd 55f0 343d bf47 d83d 806e 333d
00000030: 2058 d4bd b203 513e dc84 86bd 60df 08bf
00000040: 70ee 4ec0 ca72 413f 44d4 0ebc e6ca 36bf
00000050: 3158 72be 7837 13be ae62 9f3c 6dbf cdbe
00000060: 61b8 743e 2265 9bbf b925 e13e 2555 5a3f
00000070: ac01 b83e 7a93 65bf eb09 71bf 0ecf a53f
00000080: 7f27 673f f65d d5bd dea0 a0bf cca0 eebe
00000090: 0349 3abe 42e1 c2be 3e45 0abf 552f 313e
000000a0: 965f 9dbe 9f94 753f c2cc 9f3c bf58 4e3f
000000b0: 9657 ac3f bcba ea3e ffba c5bd 6667 ba3e
000000c0: bda4 c5bf 6015 89be
0.21351777 0.06621522 0.036946796 0.246915 -0.08776679 -0.078333355 -0.011622996 -0.1072098
-0.035049826 0.04417451 0.105605595 0.043806553 -0.10368371 0.20411566 -0.0656831 -0.53465843
-3.233303 0.7556578 -0.0087176 -0.7140335 -0.23666455 -0.14376628 0.019456234 -0.4018511
0.2389846 -1.2140238 0.43974093 0.8528617 0.35938776 -0.89678156 -0.9415576 1.2953813
0.9029464 -0.10418312 -1.2549093 -0.46607053 -0.18191914 -0.38062483 -0.54011905 0.17303212
-0.3073699 0.959299 0.019506816 0.80604166 1.3464229 0.45845592 -0.09654807 0.36407012
-1.5440899 -0.2677412

decoder.fc1.bias f4 [10]
00000000: c908 c23d 8681 b93c b677 b73d fbc6 3ebe
00000010: 8828 00be 4845 3cbf 209c 84be dab7 94bd
00000020: e848 25bf 4964 6f3f
0.09474332 0.02264477 0.0895838 -0.18630593 -0.12515461 -0.73543215 -0.25900364 -0.072616294
-0.6456437 0.935124

decoder.fc2.weight f4 [18, 10]
00000000: 3ecd 1fbb 5b0b 57be dde2 fbbd 7753 9a3c
00000010: c1a1 833b c601 84bc 91ef 803c 9db8 073e
00000020: a827 b03c e144 4c3d e40a 7bbd bb4e 27bc
00000030: 250b 14bd 7349 ea3e 7237 af3d 728d 88bf
00000040: b2fe 163f b139 d63d 7409 d2be 03ce de3f
00000050: 4e7c a13d 14ae 89bd 3fc1 75bd 6e9f c1bd
00000060: 2fc2 a4bd 2024 8d3d 3326 0abe e2b5 2c3d
00000070: ee80 b4bd 07ea f3bd ea8c 0dbd 11d7 4d3c
00000080: e77b 45bd b964 5dbd 6ca3 2d3e 3657 62bd
00000090: d8cb 693d f09b bc3d 8aea 39bb 1de2 01be
000000a0: 5d39 97bd 66f4 893c eba2 e239 f03f e13c
000000b0: 2739 b3bd 102c c43d 4ddd 393e 0658 a3bd
000000c0: df3c 833d 075a a83c 7dd2 8e39 b2e9 523d
000000d0: 5e29 e93c a06f 84bf 1866 043c 824d b83e
000000e0: 4fdb a23d 7486 ee3c 316c 783f 254e a0bf
000000f0: 8b52 553d 9fe5 1abd 062b b03d 7d44 4fbc
00000100: d082 19bd b22f 69bd 0725 94bd 1239 8abd
00000110: 2b82 33bd ed78 6e3a 5834 2f3d 32cc 0e3e
00000120: 3886 2a3e eaee a8bd 2387 07be d899 debd
00000130: 426d ccbd 6a50 03be 26cf 21bd d5e0 54bd
00000140: a639 8e3d 1c02 833d 02c5 693d b697 04c0
00000150: 89ef 1fbd c59f 8dbf 374d fdbe 4744 00bb
00000160: e59d 453f 2739 1ebf dbe8 d73d e424 4fbe
00000170: 6c2c ab3d c71c a33d bc1c 87bd dec0 fc3d
00000180: 476f b3bd 8333 4fbe 5755 35bb 9140 753e
00000190: e2e8 e8bd fcf9 04bd 384f a33d 759a 9bbb
000001a0: 5fa9 b53d 390d a1bd b5fb b03d 2592 b43d
000001b0: a63f 103d 73f2 5fbe 4295 89bd dedf 65bd
000001c0: 0a11 aabd 3642 aa3e e7cc ca3d 13d8 c1be
000001d0: e3b8 f03e 0f90 033e af16 0c3f cd83 2e3f
000001e0: e175 453c 015d 29bd 6e84 debc 7ec4 ec3f
000001f0: ed09 6fbb 3e1c 203f 48d7 913f 2438 18bd
00000200: 1101 22bf e702 633f 0c4d ba3c af31 ce3c
00000210: c7b2 6a3d 95a4 8c3f ef57 3f3d 5a23 16bf
00000220: beed 81bf 39d8 e13d bdb3 bdbf 884b 243e
00000230: c125 193d 1800 3fbd 4858 bbbd bdb0 0dbd
00000240: 31e8 e4bd 9e88 ecbc 797a a2bc f05e 87bc
00000250: 32d8 c1bd b864 03be e2a1 9c39 5a7f 9bbd
00000260: da82 883b 2bdc 313d e76c babd 05f5 9f3d
00000270: c9c9 353b 92c6 f4bd 5b72 e43d 5c79 3c3e
00000280: 4d44 1cbd 682d 903d 1e86 c33d 33f0 2abd
00000290: 3e7f 02be 0c6a bc3c be0a 66bd 01dd 8bbd
000002a0: dfce babd d31b 8ebd 771c 2f3c 5de1 0cbb
000002b0: ec04 07bd 7f49 63bf dd7a 453d 4b3d d3be
000002c0: a10a f3bf 3967 a63d af85 853f a689 68bf
-0.0024383808 -0.21000426 -0.1229913 0.018838627 0.0040170853 -0.016114127 0.015739234 0.13254018
0.021503285 0.049870376 -0.061289683 -0.010211642 -0.03614344 0.45759162 0.08555497 -1.0668166
0.58982384 0.104602225 -0.41022837 1.740662 0.07885037 -0.06722656 -0.059998747 -0.09454237
-0.0804485 0.06891656 -0.13491134 0.042165644 -0.08813654 -0.119098715 -0.034558214 0.012563483
-0.048213866 -0.054051135 0.16956872 -0.055258952 0.057079166 0.0920943 -0.0028368556 -0.12683912
-0.07383988 0.016840171 0.00043227462 0.027496308 -0.08751135 0.09578717 0.18150826 -0.079757735
0.064080946 0.02055074 0.00027241177 0.0514924 0.028462108 -1.0346565 0.008080982 0.35996634
0.07951986 0.029116847 0.97040087 -1.2523848 0.052080672 -0.03781664 0.08601956 -0.012650606
-0.03747827 -0.05693025 -0.07233625 -0.067491665 -0.04382531 0.0009096999 0.04277453 0.13945082
0.16652763 -0.08248694 -0.13235144 -0.10869187 -0.09981777 -0.12823644 -0.039504193 -0.05197223
0.06944589 0.06396887 0.057072647 -2.0717597 -0.039046798 -1.1064383 -0.49472973 -0.0019571946
0.7719405 -0.6180596 0.105424605 -0.20228916 0.08358082 0.07964473 -0.065972775 0.12341474
-0.08761459 -0.20234494 -0.0027669275 0.23950411 -0.11372544 -0.032464966 0.07974094 -0.0047486373
0.088701956 -0.0786385 0.08641759 0.08816937 0.03521695 -0.21869831 -0.06717922 -0.0561217
-0.08304031 0.3325364 0.09902363 -0.37860164 0.47016057 0.12847923 0.5472211 0.6816986
0.01205203 -0.04134846 -0.027162757 1.8497465 -0.0036474422 0.62543094 1.1393824 -0.037162915
-0.6328288 0.88676304 0.022741817 0.025170175 0.0572994 1.0987726 0.04671472 -0.5864769
-1.0150678 0.11027569 -1.4820477 0.16044438 0.03738952 -0.04663095 -0.09147698 -0.03459238
-0.111770995 -0.028873738 -0.01983379 -0.016524762 -0.09465064 -0.1283139 0.0002987525 -0.0759265
0.0041659893 0.04342286 -0.09102803 0.07810406 0.0027738682 -0.11951937 0.11154624 0.1840567
-0.038151074 0.070399106 0.09547065 -0.041732978 -0.12743852 0.022999786 -0.05616259 -0.068292625
-0.09121489 -0.06938901 0.010687939 -0.0021496632 -0.03296368 -0.8878402 0.048212875 -0.412577
-1.8987619 0.08125157 1.0431422 -0.90835035

decoder.fc2.bias f4 [18]
00000000: 8f82 25bd 4c5e b13f 4c67 bf3d 6d5b 43bb
00000010: 77b9 f2bd 3b18 bbbe 3b91 c13d e67f 9e3d
00000020: 98d9 283d 6fc3 8bbd e133 c23d 6a5c 00bf
00000030: 5fb3 f93e 791e 473d 9d88 db3d f90e aebd
00000040: cb64 e93d 9cfb 90bf
-0.040407714 1.3856902 0.09345874 -0.0029809133 -0.11851781 -0.36541924 0.09451529 0.077392384
0.04122314 -0.068243854 0.09482551 -0.5014101 0.48769662 0.048613045 0.10719416 -0.084989496
0.11396178 -1.1326785

decoder.fc3.weight f4 [22, 18]
00000000: cf00 36bd 104d 7bbe 186a 7f3d c414 3dbd
00000010: 4c81 a2bd 31d7 803d 3ad7 843d 39e1 033d
00000020: 094a 12bf 43e7 153d 24dc 37bd fdcc 70bd
00000030: 51e2 b83e 1d07 673d 96ee 443c a5ab bd3c
00000040: 97b3 843c fa2a 64be 05d5 4e3d a407 5bbf
00000050: 10ba 273c 4457 edbc 7988 f9bb 7910 8b3f
00000060: c247 f2bb b9a8 81bd 862f 19bf fe2f e93d
00000070: 421d 05be 6eaa e33d 773a 3a3e 10cd e8be
00000080: 2c5d c53b 15bf b33c 35de 8dbd 65fb 2cbe
00000090: 2111 21bd 5ae0 87be f621 803d 154a 47bd
000000a0: 1445 a1bd 8659 b33d 0c9d 7e3d 1335 fe3c
000000b0: 71ee 15bf e5c4 1d3d 4870 3ebd 8ac8 68bd
000000c0: 7a29 bb3e c692 3c3d 8880 263c 9e3a ba3c
000000d0: d4ff 993c d831 67be af93 da3c 515d 57bf
000000e0: 1983 843b e877 f8bc b941 a4bb eae6 853f
000000f0: 3d45 aebb fc34 80bd d29d 27bf 3127 a73d
00000100: 0d98 a2bd 56ce a23d 7eeb 303e 68cc f4be
00000110: 52bf 063c cd76 be3b e664 4cbc 2956 25bd
00000120: 130c 10bd 24e3 91be 1323 803d 11e6 4ebd
00000130: 3849 a0bd a81d e43d bd7b 743d 65b5 f63c
00000140: 9cf2 19bf c841 233d 0768 40bd 194e 63bd
00000150: 6e5b bd3e 00a5 0f3d bbe8 103c a69f b33c
00000160: 1da6 b13c 3fec 66be 0af1 4e3b 8c10 51bf
00000170: dc23 e8bb 19f6 c9bc e308 9c3a b6ad 7f3f
00000180: f3b5 7f3b 807d 81bd 89fd 33bf 5898 6f3d
00000190: 3200 e2bc 81af 3a3d 9e30 2d3e 25a6 febe
000001a0: 076b 003c 2e9d 90bc e349 c43c 7674 c23d
000001b0: c965 01bd bc88 9bbe b487 803d 85cd 53bd
000001c0: ba07 9fbd f96d 093e 7f5c 6b3d 03c4 f23c
000001d0: 0d48 1ebf 2c72 273d 155e 3ebd af89 60bd
000001e0: 007c bf3e 9448 c23c 8c4d 063c db34 a73c
000001f0: 971f c73c 3f43 63be 02ef 1abc a48a 47bf
00000200: 36d3 0dbc 2176 9dbc 37e1 b83a bb5a 723f
00000210: 5739 eb3b fbf9 66bd 782e 3fbf e95c 003d
00000220: 1f55 093c f244 193c d673 273e 7148 02bf
00000230: 754b e23c 8928 fcbc 2a78 133d 1402 6f3e
00000240: 2e2f e8bc c2a1 a4be f03c 813d 133c 56bd
00000250: b761 9ebd daa3 1f3e c27c 633d 6c33 f43c
00000260: 36e2 22bf cd4c 2a3d 5f58 39bd 52ac 60bd
00000270: 4081 c13e 62d9 453c 5208 073c 045d 963c
00000280: 1ee0 d83c bb3d 5cbe 7d3d 9fbb a78b 3abf
00000290: f638 f6bb ea09 1ebc 2e67 4bbc 0d34 633f
000002a0: 9439 443c 13eb 2fbd f692 48bf 640b 493c
000002b0: e265 f33c db0d c6bc 5e7c 1e3e fd7f 04bf
000002c0: cfe6 0c3d f0c7 30bd 98a4 233d 9ace be3e
000002d0: b8fb ccbc fb06 adbe 578b 823d 9a5f 56bd
000002e0: 1ba1 9ebd c885 343e 24c3 5d3d 0fa5 fa3c
000002f0: 6db1 27bf 06c2 2b3d 27c0 32bd ff89 63bd
00000300: 985f c33e 6c8a 8e39 e572 0d3c e2d8 813c
00000310: 8275 e63c bbe7 51be f4c0 673b ac2a 2bbf
00000320: 98df 90bb e94e 96bb 44f1 c3bc 23b7 523f
00000330: d80e 803c 2932 2cbd 7bad 4fbf e0e7 fabb
00000340: 1bbe 063d 1c35 64bd 969f 123e 2a9c 04bf
00000350: b256 0e3d af24 43bd 9151 063d 128b 023f
00000360: 1403 b0bc 9598 b4be 244c 843d 2605 54bd
00000370: 89a2 9fbd 0305 483e 2333 5a3d 0f60 023d
00000380: fda3 2cbf c39d 2c3d 032b 2cbd 5e74 69bd
00000390: 4c0c c53e 1464 3cbc 5cad 183c 8635 553c
000003a0: ae07 f03c e766 44be 252c 933c ec8b 19bf
000003b0: 8468 183b 32da a13a adf3 fcbc 4d76 423f
000003c0: d5cf 2a3c 33a1 0dbd d508 54bf a497 2cbc
000003d0: d389 d13c a352 c0bd e63c 053e 17b1 02bf
000003e0: 3d77 0b3d ec89 4bbd 2898 d23c c81c 233f
000003f0: 7c38 91bc b639 bbbe e614 863d 2847 4fbd
-0.044434365 -0.24541116 0.06235704 -0.04616238 -0.07934818 0.062910445 0.06486364 0.03219721
-0.5714422 0.0365975 -0.044887677 -0.058789242 0.36110166 0.056403268 0.012019774 0.023153136
0.016198916 -0.2228202 0.05049612 -0.85558534 0.010237232 -0.028972276 -0.0076151458 1.0864402
-0.007393808 -0.063310094 -0.5983814 0.11386107 -0.12999442 0.11116491 0.18186365 -0.4546895
0.00602307 0.021941701 -0.06927148 -0.16892774 -0.039322976 -0.26538354 0.062564775 -0.048654635
-0.07874504 0.087573096 0.06216149 0.031031167 -0.5856696 0.03851785 -0.0464938 -0.056831874
0.36555082 0.04603841 0.01016248 0.022733029 0.018798746 -0.22577608 0.02668175 -0.84126765
0.0040439484 -0.030330613 -0.0050127176 1.0461094 -0.0053183124 -0.06260106 -0.6547519 0.08161772
-0.07939158 0.07949512 0.17277333 -0.478122 0.008224325 0.005812502 -0.012475228 -0.04036537
-0.035167765 -0.28493607 0.0625669 -0.050512377 -0.07826465 0.11138469 0.05968832 0.030115793
-0.6013582 0.039857656 -0.04697421 -0.0554944 0.36983818 0.035069466 0.00884455 0.021926712
0.021685654 -0.22551058 0.0031576776 -0.81665874 -0.007084353 -0.024653481 0.0011904504 0.99874437
0.0039018362 -0.06322765 -0.7030874 0.058494896 -0.027587984 0.04557753 0.16913077 -0.49736133
0.007838017 -0.017653074 0.023961013 0.094948694 -0.03159121 -0.30377758 0.06275883 -0.05170967
-0.077651456 0.13420857 0.057461258 0.029634481 -0.6182869 0.040880367 -0.046476442 -0.054818805
0.37399292 0.023716249 0.0081972 0.020410946 0.024307055 -0.22193621 -0.009456398 -0.77945924
-0.008656314 -0.019221367 0.0014105205 0.94669694 0.0071784663 -0.056390744 -0.7468028 0.031338606
0.008382111 0.009354817 0.16352782 -0.50891787 0.027623871 -0.030781047 0.03600327 0.23340636
-0.02834281 -0.3215466 0.06310451 -0.052303385 -0.077334814 0.15589848 0.0555389 0.029809676
-0.6362642 0.04157715 -0.045250293 -0.054851837 0.37793922 0.012075754 0.00824173 0.0183549
0.026474055 -0.21507923 -0.004859625 -0.7286934 -0.0075141145 -0.009645918 -0.012414737 0.887513
0.011976618 -0.042948794 -0.78349245 0.012270782 0.029711667 -0.024176529 0.1547713 -0.51757795
0.034399804 -0.043159425 0.03995189 0.37267 -0.025022373 -0.33794388 0.06374233 -0.052337267
-0.07745572 0.17629158 0.05414118 0.030596284 -0.65505105 0.041933082 -0.043640282 -0.055551525
0.3815887 0.00027187483 0.00863335 0.015850488 0.028132204 -0.20498554 0.0035362812 -0.6686199
-0.0044211857 -0.0045870435 -0.023918755 0.82310694 0.015632078 -0.042040024 -0.81124085 -0.007657036
0.032896142 -0.05571471 0.1431869 -0.5180079 0.034750648 -0.047642406 0.03279263 0.50993454
-0.021485843 -0.3527266 0.06459835 -0.051762722 -0.07794673 0.19533162 0.053271424 0.03182989
-0.67437726 0.04214264 -0.042033207 -0.056995742 0.38485944 -0.01149847 0.009318676 0.013013249
0.029300537 -0.19179879 0.017965386 -0.5997913 0.0023255656 0.0012348352 -0.030877912 0.7596176
0.010425528 -0.03457756 -0.82825977 -0.010534201 0.025578415 -0.09390762 0.13011512 -0.5105147
0.03404926 -0.04969208 0.02570732 0.6371579 -0.01772713 -0.36567467 0.06546955 -0.05060497

decoder.fc3.bias f4 [22]
00000000: 007d a13d a542 ab3f 0a67 ed3d 1d1a b13f
00000010: c87f 1d3e 3082 b53f 54e1 443e 1329 b83f
00000020: c376 6c3e fedf b83f 58f7 893e 7c32 b83f
00000030: a882 9d3e a8dc b53f a4b6 b03e a2ba b13f
00000040: 1c70 c33e b23c ac3f 7b8a d53e 74d6 a43f
00000050: 17dd e63e 49e0 9b3f
0.0788517 1.3379713 0.11591919 1.3836094 0.15380776 1.4180355 0.19226581 1.4387535
0.23092179 1.4443357 0.2694652 1.4390407 0.30763745 1.4207964 0.34514344 1.3885081
0.3817147 1.3456023 0.41707215 1.2877946 0.45090553 1.2177821
